models/discriminator.pth (torch, 444251 bytes, 12 tensors)

layer_stack.0.weight f4 [32, 1, 4, 4]
0	0x3d35eccb	0.044415276
1	0xbd70329a	-0.058642007
2	0x3d71136a	0.058856405
3	0xbcd28cb3	-0.025701856
4	0xbd525c75	-0.051357705
5	0x3e307621	0.17232563
6	0xbd281fc2	-0.04104591
7	0x3dbaf092	0.091279164
8	0xbe412e3e	-0.18865296
9	0x3e6573b6	0.22407421
10	0x3e70121a	0.23444405
11	0xbe5fd62e	-0.21859047
12	0x3d0e672b	0.034766357
13	0x3e4d07b8	0.20022476
14	0x3e66777a	0.22506514
15	0x3d78dbbb	0.060756426
16	0x3d2d1480	0.04225588
17	0x3c7f0ee2	0.015567513
18	0xbe86a71f	-0.26299378
19	0xbe975ca8	-0.2956288
20	0x3d80455a	0.06263228
21	0x3bed6157	0.00724427
22	0x3e9109c0	0.2832775
23	0x3e8028a1	0.25030997
24	0xbe542199	-0.20715941
25	0x3e3f0749	0.18655123
26	0x3dd4c071	0.10388268
27	0x3e5a17e4	0.21298176
28	0xbd9f38e1	-0.07774521
29	0x3d379738	0.044821948
30	0xbddc5e94	-0.10760227
31	0xbe8109b1	-0.25202706
32	0x3e525e2d	0.20543738
33	0x3e3f8036	0.18701252
34	0xbd69d5a0	-0.057088494
35	0xbe133e70	-0.14379287
36	0x3e40fbc7	0.18846045
37	0xbdb6e660	-0.08930659
38	0x3c0880e2	0.008331509
39	0xbdc6151d	-0.09671996
40	0xbe3f0c45	-0.18657024
41	0xbe69cf04	-0.22832876
42	0x3cee0b4a	0.029058117
43	0x3e3d7739	0.18502511
44	0xbdc629dd	-0.096759535
45	0x3df9f26d	0.12204442
46	0x3d989600	0.07450485
47	0xbe3f91d9	-0.1870798
48	0x3d155905	0.03646185
49	0xbd099ed8	-0.03359875
50	0xbe0c8cb2	-0.13725546
51	0x3dd28f76	0.10281269
52	0xbe77ac47	-0.24186812
53	0x3e1ada74	0.15122396
54	0xbd05529a	-0.032549478
55	0xbe83d3aa	-0.25747424
56	0xbbe4b921	-0.006980077
57	0xbdc5c917	-0.096574955
58	0x3e44802b	0.19189517
59	0x3e0bc85c	0.1365065
60	0xbdef9a95	-0.11699406
61	0x3dfe99c9	0.12431676
62	0xbdafd5df	-0.085857145
63	0x3d9a9c7b	0.075493775
64	0x3e17e57d	0.14833637
65	0xbe2f3e28	-0.17113554
66	0x3e25a0bf	0.16174601
67	0xbe2d647e	-0.16932866
68	0xbcc6873b	-0.024234405
69	0x3c8c9f04	0.017165668
70	0x3e0d1df0	0.13780951
71	0xbe0e85d2	-0.13918236
72	0x3dbf871e	0.093519434
73	0x3ce62d36	0.02809773
74	0xbd4337bb	-0.04766057
75	0xbe5719f5	-0.21005996
76	0x3d7074b5	0.05870505
77	0xbde4a953	-0.111651085
78	0xbdd90195	-0.10596005
79	0x3e85e996	0.26154774
80	0xbd7d1938	-0.06179163
81	0x3dc14237	0.094364576
82	0xbd93bcc0	-0.072137356
83	0xbdc2cb5f	-0.09511446
84	0xbe2ee632	-0.1708
85	0xbce8465a	-0.028353859
86	0xbe892d6c	-0.26792467
87	0x3d9d9767	0.07694893
88	0x3d91d15c	0.0712001
89	0x3e633eee	0.22191975
90	0x3e377fb7	0.17919813
91	0xbe389353	-0.1802495
92	0x3d46d1a9	0.04853979
93	0xbd120c24	-0.03565611
94	0x3d23334b	0.03984384
95	0x3e4ba9c5	0.1988898
96	0x3c380b45	0.011233156
97	0xbdc45259	-0.09586019
98	0x3e7120f4	0.23547727
99	0xbb4a4911	-0.0030866305
100	0xbc3ff296	-0.011715552
101	0xbdb2f9f3	-0.0873908
102	0xbe83f61b	-0.257737
103	0x3db21460	0.086952925
104	0xbd057624	-0.03258337
105	0x3dc5e12e	0.0966209
106	0xbcc5ca04	-0.02414418
107	0xbe551a28	-0.20810759
108	0xbdcd0ac2	-0.100118175
109	0x3e13c8df	0.14432095
110	0xbdc87501	-0.09787942
111	0x3dd870a0	0.105683565
112	0xbe3017c5	-0.17196567
113	0xbe393394	-0.18086082
114	0x3e3c8dc2	0.18413451
115	0x3dfc7e53	0.12328782
116	0x3e61b160	0.2204032
117	0xbe357a2d	-0.17722388
118	0x3e7c1e60	0.24620962
119	0xbe2cb6d8	-0.16866624
120	0xbd6c4b83	-0.0576892
121	0xbe82d610	-0.25553942
122	0xbe0cfcea	-0.13768354
123	0x3e38d7ad	0.18051024
124	0x3d9188a2	0.07106139
125	0x3e455bf6	0.19273362
126	0xbc1c54f0	-0.009541735
127	0x3c8c43e0	0.01712221
128	0x3e0d4eec	0.13799638
129	0x3be13b42	0.006873519
130	0xbd0225c9	-0.031774316
131	0x3e20373e	0.15646073
132	0x3df95357	0.12174099
133	0xbe838cb1	-0.25693277
134	0x3dfbc842	0.122940555
135	0xbd337ba0	-0.04381907
136	0xbdb3b1a2	-0.08774115
137	0xbe1064ae	-0.14100906
138	0xbe2828af	-0.1642177
139	0xbd9bc467	-0.0760582
140	0x3e75cb16	0.24003252
141	0xbdf8f297	-0.12155645
142	0x3dc5a312	0.09650244
143	0xbcdfb67d	-0.027308697
144	0x3e0b3740	0.13595295
145	0xbe169fb5	-0.14709361
146	0x3e761cb9	0.24034394
147	0xbe668932	-0.22513273
148	0x3e813b00	0.25240326
149	0xbeaeca03	-0.34138498
150	0x3e1d4d5a	0.15361539
151	0xbdcf5297	-0.10123175
152	0x3daf47d9	0.08558626
153	0x3c082d69	0.008311608
154	0x3e1239a8	0.14279807
155	0x3e53871c	0.20657009
156	0xbde1294d	-0.109942056
157	0x3e463799	0.19357146
158	0xbe8342d3	-0.2563692
159	0x3e401701	0.18758775
160	0xbde55118	-0.11197108
161	0x3e1b852b	0.15187518
162	0xbe22b8dc	-0.15890831
163	0x3dfda091	0.12384141
164	0x3e5cc88a	0.21560875
165	0xbe1835a2	-0.1486421
166	0x3e8e12e0	0.27748775
167	0xbdae8dd7	-0.085231476
168	0xbda1f9cc	-0.07908973
169	0xbe75fa29	-0.2402121
170	0x3dc74041	0.09729052
171	0xbe885d5f	-0.26633736
172	0xbce9817f	-0.028504131
173	0x3e02fe16	0.12792239
174	0xbdbf20a4	-0.093323976
175	0x3dbc8fb9	0.092071004
176	0xbdb70ffd	-0.089385964
177	0x3d6ee541	0.058324102
178	0xbcede911	-0.029041799
179	0x3d95d72f	0.07316434
180	0x3dae8828	0.085220635
181	0x3e25dd9e	0.16197821
182	0xbde7c54a	-0.11316927
183	0xbdb20c4c	-0.08693752
184	0xbc6831a8	-0.014171995
185	0xbeac6c1d	-0.33676234
186	0xbd87c653	-0.06629624
187	0xbd729100	-0.059220314
188	0x3d3acd5f	0.045606013
189	0xbe8b0801	-0.27154544
190	0xbe54a060	-0.20764303
191	0x3db4ea04	0.088336974
192	0x3d31e0f8	0.043427438
193	0x3e175b3a	0.14780894
194	0x3e1b8b9c	0.15189976
195	0xbe2c90ed	-0.1685216
196	0xbddb096e	-0.10695158
197	0x3d45a062	0.048248656
198	0xbe6fb779	-0.23409833
199	0x3e3b98b3	0.18319969
200	0x3d44e216	0.048067175
201	0xbd629ba1	-0.0553242
202	0xbe3b37da	-0.18283024
203	0xbdd3422a	-0.10315354
204	0xbe1ad655	-0.15120824
205	0x3e252f80	0.16131401
206	0xbe2f7300	-0.17133713
207	0xbdbf5478	-0.09342283
208	0x3e299bf7	0.16563402
209	0x3e9257ea	0.28582698
210	0xbd586f1d	-0.05284034
211	0xbe0d1cf6	-0.13780579
212	0x3def1376	0.11673634
213	0xbdd404dc	-0.10352489
214	0x3d287372	0.041125722
215	0xbcc61c00	-0.024183273
216	0x3db146d9	0.08656091
217	0x3d902376	0.07038014
218	0xbd3b040f	-0.045658167
219	0x3bbba3cd	0.0057263137
220	0xbd4288ff	-0.04749393
221	0xbd23b565	-0.039967913
222	0xbc4faf96	-0.01267614
223	0x3e9a584b	0.30145487
224	0xbd1f80cd	-0.038941193
225	0xbd8aab2a	-0.06770928
226	0x3dd92d6a	0.10604365
227	0xbd8b69cd	-0.06807289
228	0x3da89866	0.08232193
229	0xbe9f6a85	-0.31135955
230	0x3df2781e	0.11839317
231	0xbe61c7e8	-0.22048914
232	0xbe36f0f0	-0.17865348
233	0x3c0dc143	0.008652034
234	0x3e5a4a0b	0.21317308
235	0x3e2e3263	0.17011409
236	0x3e0983fe	0.13429257
237	0xbdbddc74	-0.09270564
238	0x3cf28b8a	0.029607553
239	0xbd1557f4	-0.03646083
240	0x3df32a90	0.118733525
241	0x3d9e109a	0.0771801
242	0xbd852045	-0.065002955
243	0x3e16f5a0	0.14742136
244	0xbe2abf41	-0.1667452
245	0x3d619635	0.05507489
246	0xbd83b676	-0.06431286
247	0x3d1f352b	0.038869064
248	0xbc0a92af	-0.008457824
249	0x3e5f6681	0.21816446
250	0xbe204903	-0.15652852
251	0x3c384bd0	0.011248544
252	0x3e0dc613	0.1384509
253	0x3ea1bc1c	0.3158883
254	0xbe7ca10b	-0.24670808
255	0xbdfa7725	-0.12229756

layer_stack.2.weight f4 [64, 32, 4, 4]
0	0x3d17527f	0.03694391
1	0x3ce348d6	0.027744692
2	0x3d840ad2	0.06447376
3	0xbc2882b0	-0.010285065
4	0x3d2ac4e7	0.041691687
5	0x3d504309	0.05084518
6	0x3c4ebcd6	0.012618264
7	0x3d6bdb62	0.057582267
8	0xbced3f78	-0.028960928
9	0x3c23b1cd	0.0099911215
10	0x3d87011d	0.06592009
11	0x3d7d7512	0.061879225
12	0x3c985fb2	0.018600319
13	0x3d49e366	0.04928913
14	0x3d9fb051	0.077973016
15	0x3da8708a	0.0822459
16	0x3bd9a052	0.006641426
17	0xbcedd88f	-0.029033927
18	0xbbd7aaed	-0.0065816552
19	0xbb80c8ba	-0.0039301785
20	0x3d707e55	0.05871423
21	0xbd11c149	-0.03558472
22	0xbda7d1b2	-0.08194293
23	0xbda9d6af	-0.08292901
24	0x3d7771f1	0.060411397
25	0x3c50a6dd	0.012735096
26	0x3e1bba67	0.15207826
27	0x3c6a8d89	0.014315971
28	0x3d2ff0d8	0.042954296
29	0x3d90f391	0.070777066
30	0x3d1f21e0	0.038850665
31	0x3c13031a	0.008972907
32	0x3d4785fa	0.048711754
33	0x3c96a8a6	0.018390965
34	0xbc61d994	-0.013784785
35	0x3b8bfc4b	0.004272019
36	0x3d67bd19	0.056576822
37	0xbc1f99de	-0.009741275
38	0xbda567ee	-0.08076464
39	0xbc9f4a03	-0.019444471
40	0xbd8a6b27	-0.06758719
41	0x3d3ef934	0.046624377
42	0xbda62ae7	-0.08113652
43	0xbd649b09	-0.055811916
44	0xbb66ce88	-0.0035218317
45	0xbdd61cef	-0.104547374
46	0xbdc87fac	-0.097899765
47	0xbd7bb216	-0.061449133
48	0xbd65ca0a	-0.056100883
49	0xbd10ff9d	-0.03540002
50	0x3ce0482f	0.02737817
51	0xbc3c8165	-0.011505459
52	0x3c99a026	0.018753123
53	0xbc81cdea	-0.015845258
54	0xbe02939d	-0.12751622
55	0x3c665a43	0.014059606
56	0xbc98c8fe	-0.018650528
57	0x3d195b2d	0.037440468
58	0x3d108816	0.03528603
59	0x3c80035d	0.015626604
60	0xbb7bb042	-0.0038404618
61	0xbcf2af61	-0.029624643
62	0xbc396ecc	-0.01131792
63	0xbd050a9f	-0.032480832
64	0xbd9bc473	-0.07605829
65	0xbe494b3b	-0.19657604
66	0xbe16bf4e	-0.14721414
67	0xbd96f202	-0.07370378
68	0xbd2420d3	-0.040070366
69	0x3d049058	0.03236422
70	0xbe667c65	-0.2250839
71	0xbdaca319	-0.08429546
72	0xbcc23cd5	-0.023710648
73	0xbd76e25a	-0.06027446
74	0xbdaf7268	-0.08566743
75	0xbde49859	-0.111618705
76	0xbb1f483d	-0.0024304532
77	0xbc2ab7a2	-0.010419758
78	0xbd4b9034	-0.04969807
79	0xbe29f2d7	-0.16596542
80	0x3df2b6ff	0.1185131
81	0x3ca45f14	0.020064868
82	0x3ad2823c	0.0016060541
83	0x3d0e5920	0.034752965
84	0x3d2e0c9c	0.042492494
85	0xbc1e4639	-0.009660297
86	0x3d049213	0.03236587
87	0xbc48f81f	-0.012266188
88	0x3c3cfeb2	0.0115353335
89	0xbc53ebd9	-0.012934648
90	0x3cb1b68c	0.02169349
91	0x3c1eee2b	0.009700338
92	0x3c605839	0.013692909
93	0x3c146400	0.009057045
94	0x3d5d5257	0.054033604
95	0x3cf196e2	0.029490892
96	0x3bbf53e4	0.005838858
97	0xbc803719	-0.015651273
98	0x3c969181	0.018379929
99	0xbc583fb8	-0.0131987855
100	0x3c3852b2	0.011250185
101	0xbcbd6d2c	-0.023123346
102	0x3d7f0b77	0.062266793
103	0xbc8171d7	-0.015801353
104	0xbd410fe6	-0.047134303
105	0xbc979f20	-0.018508494
106	0x3e3ba84a	0.18325916
107	0xbbf25ef6	-0.007396574
108	0xbd42504c	-0.04743986
109	0x3d5b2708	0.05350402
110	0x3d05024e	0.0324729
111	0x3cf0842c	0.0293599
112	0x3d147e5d	0.036253322
113	0xbd60ea93	-0.054911207
114	0x3c95754e	0.018244412
115	0x3b735862	0.0037131538
116	0x3dbcb622	0.092144266
117	0xbd9d2908	-0.07673842
118	0xbdd7079d	-0.10499499
119	0x3d17f7c9	0.03710154
120	0xbc025ee3	-0.007957193
121	0xbe0728bd	-0.13199134
122	0xbd07d397	-0.033160772
123	0x3d11ebce	0.03562527
124	0xbcb65356	-0.022256535
125	0xbdde4a12	-0.108539715
126	0xbda6edd2	-0.081508294
127	0xbbbd2e1a	-0.005773318
128	0xbd22c319	-0.03973684
129	0x3dc1df41	0.094664104
130	0x3d1d4829	0.038398895
131	0xbc1585ed	-0.009126169
132	0xbc74c700	-0.014940023
133	0x3d0b8fbd	0.034072626
134	0x3c8e70fe	0.017387863
135	0x3c768135	0.015045454
136	0x3c7ac87c	0.015306588
137	0x3d42fb56	0.047602974
138	0x3cfe6923	0.031055992
139	0x3d359a0f	0.044336375
140	0x3d4f0bad	0.050548244
141	0x3c8ffbfe	0.017576214
142	0xbcaaedbf	-0.02086532
143	0xbc4bca45	-0.0124383615
144	0x3ba31b35	0.0049776086
145	0xbdb772c9	-0.089574404
146	0x3db8858b	0.09009846
147	0xbccd168e	-0.025035169
148	0xbd8ffaa7	-0.0703023
149	0xbdc7100a	-0.09719856
150	0xbc2e7bef	-0.010649665
151	0xbde08857	-0.10963505
152	0xbcc17606	-0.023615848
153	0xbd9ed2d9	-0.0775506
154	0xbc374ea2	-0.011188181
155	0xbd5581cd	-0.05212574
156	0x3c95b72c	0.01827582
157	0x3bfff001	0.007810593
158	0x3deee4a6	0.11664705
159	0x3c2eec80	0.010676503
160	0x3cf88199	0.030335234
161	0xbcc6d401	-0.024271013
162	0xbb16c188	-0.0023003537
163	0xbdcf4a32	-0.101215735
164	0xbd5a0a08	-0.053232223
165	0xbd90f5bb	-0.07078119
166	0xbe7b485a	-0.24539319
167	0xbdea3822	-0.11436488
168	0x3d48e307	0.049044635
169	0xbdbbc9a1	-0.09169317
170	0xbe39f1f1	-0.181587
171	0xbe147bcb	-0.14500348
172	0x3d868ccc	0.065698236
173	0x3c8d8917	0.017277284
174	0xbe47f665	-0.19527586
175	0xbd3772fb	-0.04478739
176	0x3c8fd64f	0.017558245
177	0x3cd8122e	0.026375856
178	0x3b3efc43	0.002914206
179	0xbba3e99e	-0.0050022146
180	0x3ce7d562	0.028299991
181	0x3d216cb7	0.03941032
182	0x3d6b6abf	0.057474848
183	0xbbbf7ce1	-0.005843744
184	0xbce55379	-0.027993904
185	0xbcd10b7e	-0.025518175
186	0x3c62ef53	0.013851005
187	0x3d267f01	0.040648464
188	0xbccd6b54	-0.025075592
189	0xbd2c3e85	-0.04205181
190	0xbc9ed78c	-0.01938989
191	0x3d0b7fa5	0.03405728
192	0x3c72f68f	0.014829292
193	0x3ccb8390	0.024843007
194	0x3c4d73da	0.012539828
195	0xbadc43fd	-0.001680493
196	0xbcb0fa84	-0.02160383
197	0x3cb873a6	0.022516083
198	0x3d972c5f	0.0738151
199	0xbd106b27	-0.03525844
200	0x3c01a8f4	0.007913817
201	0x3d532af9	0.051554654
202	0x3d820f6d	0.063505985
203	0x3c8dbc82	0.017301802
204	0xbd0627d7	-0.032752838
205	0xbca7ab4b	-0.020467421
206	0xbc878f30	-0.01654777
207	0x3da2c734	0.07948151
208	0x3c68907e	0.014194606
209	0xbca64369	-0.020295816
210	0x3d5062db	0.050875526
211	0x3d0bf153	0.03416569
212	0xbbd01b7d	-0.006350933
213	0xbbb64307	-0.0055621895
214	0x3caf5b17	0.02140574
215	0x3c83a01b	0.016067555
216	0xbd7713fe	-0.0603218
217	0x3bc8351b	0.0061098463
218	0x3d36a56a	0.044591345
219	0xbb587756	-0.0033030114
220	0xbd5b50f3	-0.053543996
221	0x3c3bc877	0.011461369
222	0x3de7a9d5	0.1131169
223	0x3d0844e1	0.033268813
224	0xbc56bd9f	-0.013106733
225	0xbda0428f	-0.07825195
226	0x3bf789eb	0.007554283
227	0xbcda6e4b	-0.02666392
228	0x3d7e3c63	0.062069308
229	0x3cf9affb	0.030479422
230	0x3bed497a	0.007241425
231	0xbb1b2a1a	-0.0023676218
232	0x3dad5f7c	0.08465478
233	0xbd01311a	-0.031540968
234	0xbe94e2e8	-0.29079366
235	0x3c2fd7e9	0.010732629
236	0x3dc1e74d	0.09467945
237	0xbd94f599	-0.072734065
238	0xbe06118a	-0.13092628
239	0x3cf113b9	0.02942835
240	0xbc962bd4	-0.018331446
241	0xbd4204f8	-0.04736802
242	0xbdd11339	-0.102087446
243	0x3da11a52	0.07866348
244	0x3dbed04e	0.09317075
245	0x3d992866	0.074784085
246	0x3ce2f452	0.027704392
247	0x3d017876	0.03160902
248	0x3d633b07	0.055476215
249	0x3d1a8d84	0.037732616
250	0xbca64f1b	-0.020301392
251	0xbc6c6ab9	-0.014429742
252	0x3d41d1bb	0.047319155
253	0x3b794c3d	0.0038039826
254	0x3d5191ce	0.05116444
255	0xbd40237c	-0.04690884

layer_stack.3.weight f4 [64]
0	0x3f6587a2	0.89660084
1	0x3f652393	0.89507407
2	0x3f7351ae	0.9504651
3	0x3f8235ba	1.0172646
4	0x3f8895b6	1.0670688
5	0x3f76cf08	0.96409655
6	0x3f804203	1.0020145
7	0x3f939dbe	1.1532514
8	0x3f5c9c05	0.86175567
9	0x3f793f3b	0.9736211
10	0x3f874baa	1.0569966
11	0x3f808704	1.0041203
12	0x3f84b388	1.0367289
13	0x3f5ab4b1	0.85431963
14	0x3f7e8a7d	0.99430066
15	0x3f80081e	1.0002477
16	0x3f818a99	1.0120422
17	0x3f7fd8a0	0.9993992
18	0x3f878470	1.0587292
19	0x3f835b7c	1.0262294
20	0x3f81b906	1.013459
21	0x3f824d3c	1.017982
22	0x3f8159f6	1.0105579
23	0x3f7cc7e2	0.98742497
24	0x3f8232f9	1.0171806
25	0x3f761b72	0.9613563
26	0x3f76f618	0.9646926
27	0x3f7874a1	0.9705296
28	0x3f7c3f2e	0.98533905
29	0x3f84ef7c	1.0385585
30	0x3f74f57d	0.95687085
31	0x3f803c2b	1.0018362
32	0x3f848bf4	1.035521
33	0x3f7904be	0.9727286
34	0x3f7d15ee	0.9886159
35	0x3f7f42c8	0.99711275
36	0x3f74f77e	0.95690143
37	0x3f6d8eaa	0.92795813
38	0x3f8309cb	1.0237364
39	0x3f82bbfa	1.0213616
40	0x3f75c2bf	0.96000284
41	0x3f79c089	0.9755941
42	0x3f882b4c	1.0638213
43	0x3f60dd49	0.87837654
44	0x3f7a302c	0.97729754
45	0x3f8510ec	1.0395789
46	0x3f852fb0	1.0405178
47	0x3f7b6c25	0.9821189
48	0x3f7558dd	0.9583872
49	0x3f8cbc9a	1.0995057
50	0x3f7b1496	0.98078287
51	0x3f88c5ca	1.068536
52	0x3f85a38e	1.0440538
53	0x3f75c480	0.9600296
54	0x3f8264be	1.0186994
55	0x3f862425	1.047978
56	0x3f896b4d	1.0735871
57	0x3f822298	1.0166807
58	0x3f7342c7	0.9502377
59	0x3f76e352	0.96440613
60	0x3f6d9ad4	0.92814374
61	0x3f803380	1.0015717
62	0x3f7c74ea	0.98615897
63	0x3f83f2b7	1.0308446

layer_stack.3.bias f4 [64]
0	0xbde34b95	-0.110984005
1	0xbdb70711	-0.08936895
2	0xbd36dc4d	-0.04464369
3	0xbb5f9faa	-0.0034122267
4	0xbe9e7f85	-0.30956665
5	0xbe044658	-0.12917459
6	0xbe00c2ad	-0.12574263
7	0xbda0615b	-0.07831069
8	0xbddfc632	-0.10926475
9	0xbc8bf066	-0.017082404
10	0xbd987d4b	-0.07445773
11	0xbe99354c	-0.29923475
12	0xbe7a9bb0	-0.24473453
13	0xbe8aa504	-0.27079022
14	0xbc0ad92b	-0.008474628
15	0xbdd404de	-0.10352491
16	0xbcc18946	-0.023625027
17	0xbd4d0d9e	-0.050061814
18	0x3d802016	0.0625612
19	0xbd025a0f	-0.031824168
20	0xbe490a4d	-0.19632836
21	0xbd610be1	-0.05494297
22	0xbe9b2f68	-0.30309606
23	0xbdcb767b	-0.09934708
24	0xbc8bf881	-0.01708627
25	0xbe479c20	-0.1949315
26	0xbdaac001	-0.08337403
27	0xbd93daca	-0.07219465
28	0xbd9b8f99	-0.075957485
29	0xbe4638aa	-0.19357553
30	0xbe02d69d	-0.12777181
31	0xbe193f92	-0.14965656
32	0xb89ae81a	-7.3865245e-05
33	0xbdd324e7	-0.10309773
34	0xbe087733	-0.13326721
35	0xbe4debe6	-0.2010952
36	0xbd4863c4	-0.04892327
37	0xbdc45919	-0.095873065
38	0xbe028757	-0.1274694
39	0xbe4f8c5f	-0.20268391
40	0xbd27fb31	-0.04101104
41	0xbc92c961	-0.01791829
42	0x3d865d96	0.06560819
43	0xbd68eca9	-0.05686632
44	0xbe86aff5	-0.2630612
45	0xbd81914c	-0.06326541
46	0x3d885511	0.0665685
47	0xbe046c08	-0.12931836
48	0xbd8105b4	-0.06299916
49	0xbebf4022	-0.37353617
50	0xbe7e1e15	-0.24816163
51	0xbcda33f4	-0.026636101
52	0xbd12ec8d	-0.035870124
53	0xbd9582b6	-0.07300322
54	0xbe0ff88e	-0.1405966
55	0xbd5228d9	-0.051308487
56	0xbe0a1289	-0.13483633
57	0xbd922baa	-0.071372345
58	0xbe874166	-0.26417083
59	0xbcf05343	-0.029336577
60	0xbe166fe0	-0.14691114
61	0xbea3fe8a	-0.32030135
62	0xbdeba33b	-0.11505743
63	0x3cebecf0	0.028799504

layer_stack.3.running_mean f4 [64]
0	0xbda4e911	-0.080522664
1	0x3fc1c706	1.5138862
2	0xbf78d1bc	-0.9719503
3	0xbedae0fa	-0.42749768
4	0x3e152f26	0.14568767
5	0xbd1dea63	-0.038553607
6	0x3ef59ed2	0.47972733
7	0x3f509df1	0.81491
8	0xbf15e90a	-0.58558714
9	0xbeb8f599	-0.36124876
10	0xbf286c7c	-0.65790534
11	0x3edfe061	0.43725875
12	0x3f1699ad	0.5882824
13	0x3d87c93f	0.066301815
14	0xbf7ee3a8	-0.99566126
15	0xbe232746	-0.1593295
16	0x3ee4f03d	0.44714537
17	0x3d96bbad	0.07360015
18	0xbf8977f5	-1.0739733
19	0xbf407a29	-0.751864
20	0xbe66577c	-0.2249431
21	0xbf03880a	-0.51379454
22	0x3c2e7528	0.010648049
23	0xbd21af30	-0.039473712
24	0xbe3ae309	-0.1825067
25	0xbfd7883d	-1.6838452
26	0x3dd6f4bb	0.104958974
27	0x3e6cb196	0.23114619
28	0xb914d9ea	-0.00014195559
29	0x3f8aa419	1.0831329
30	0xbeb9eee1	-0.36315063
31	0xbe98a27b	-0.29811463
32	0xbf69e182	-0.9135972
33	0x3e9ad03a	0.3023699
34	0xbed35056	-0.4127223
35	0xbf4996aa	-0.7874552
36	0x3e954f8f	0.2916226
37	0x3d8371bb	0.06418177
38	0xbf1994ce	-0.5999268
39	0xbee319b2	-0.4435554
40	0x3f2fc64b	0.68661946
41	0xbece61a1	-0.4030886
42	0xbf95a5a7	-1.1691178
43	0xbf62a2d5	-0.8852971
44	0x3ed41eb3	0.41429672
45	0x3e17f579	0.14839734
46	0xbfba426e	-1.4551523
47	0x3fc087d9	1.5041457
48	0x3f05a846	0.5220989
49	0x3f3c6d4d	0.7360428
50	0xbf2cd10c	-0.6750648
51	0xbfb75f60	-1.4325981
52	0x3f5f5bae	0.8724927
53	0xbe09ecc2	-0.13469222
54	0x3ba84526	0.0051351963
55	0x3f299391	0.66240793
56	0xbf040145	-0.5156444
57	0xbf498602	-0.78720105
58	0xbe97f760	-0.2968092
59	0xbf2d3275	-0.67655116
60	0x3f90efd1	1.1323186
61	0xbf47b056	-0.7800344
62	0x3dda8515	0.10669915
63	0xbfc0ada1	-1.5052987

layer_stack.3.running_var f4 [64]
0	0x3d57994e	0.052636437
1	0x3c36760e	0.011136545
2	0x3d68784a	0.05675534
3	0x3d0c186a	0.03420297
4	0x3d2129e0	0.039346576
5	0x3d888386	0.06665711
6	0x3d0aa85d	0.03385197
7	0x3d858bdb	0.06520816
8	0x3cad1bab	0.021131357
9	0x3d07c91b	0.033150773
10	0x3da33064	0.07968214
11	0x3cf5a129	0.029984074
12	0x3d00f446	0.031482957
13	0x3cef1760	0.02918595
14	0x3dab8736	0.08375399
15	0x3cc504fa	0.024050225
16	0x3d4b85c8	0.04968813
17	0x3cf53c9c	0.029936127
18	0x3c5c5675	0.013448347
19	0x3cd13ba7	0.02554114
20	0x3c897d14	0.016783275
21	0x3dc917a2	0.09818961
22	0x3d2fd598	0.04292831
23	0x3d740a20	0.05957997
24	0x3d13f2ba	0.036120154
25	0x3e8f06ad	0.2793478
26	0x3d4a35e4	0.0493678
27	0x3dd7cb8c	0.1053687
28	0x3d06371e	0.032767408
29	0x3cb825f8	0.022479042
30	0x3cd5755f	0.026056943
31	0x3d2053cd	0.03914242
32	0x3cfa645e	0.030565437
33	0x3dc3b500	0.095560074
34	0x3ca1711f	0.01970726
35	0x3e3f9ef2	0.18712977
36	0x3cd97457	0.026544733
37	0x3ce56b31	0.028005214
38	0x3d72cd5e	0.059277885
39	0x3d79eeed	0.061018873
40	0x3cfd12d7	0.030892773
41	0x3d082513	0.03323848
42	0x3c1eb1aa	0.009685913
43	0x3e0cd86a	0.1375443
44	0x3d426483	0.047459137
45	0x3d81208e	0.063050374
46	0x3c5f6c29	0.013636627
47	0x3c686c3b	0.01418596
48	0x3d9f854e	0.07789098
49	0x3d0c4347	0.03424385
50	0x3dbb8bf1	0.09157551
51	0x3c8720a7	0.016495062
52	0x3e65390d	0.22385044
53	0x3d1593d1	0.03651792
54	0x3d6dc466	0.05804863
55	0x3d4ca141	0.04995847
56	0x3d09d381	0.03364897
57	0x3d49e6de	0.049292438
58	0x3d1c2ebe	0.038130514
59	0x3d53c541	0.051701788
60	0x3d0a98bd	0.03383707
61	0x3d3576fb	0.04430292
62	0x3d8e51d1	0.06949199
63	0x3c30ef3e	0.010799227

layer_stack.5.weight f4 [128, 64, 3, 3]
0	0xbdcd2f3c	-0.10018775
1	0xbc18dbc2	-0.009329738
2	0x3d9c8e5b	0.0764434
3	0xbdfc7964	-0.12327841
4	0xbcad1e54	-0.021132626
5	0xbd76f1a6	-0.060289048
6	0xbcfae164	-0.030625053
7	0x3d87cc47	0.0663076
8	0xbd2a04f4	-0.04150863
9	0x3cfac6a0	0.03061229
10	0xbd0ac527	-0.033879425
11	0xbe02ca7f	-0.12772559
12	0xbcea00e1	-0.028564872
13	0xbd9627f2	-0.07331838
14	0xbd0fc9fb	-0.035104733
15	0xbde46533	-0.11152115
16	0xbda8d189	-0.08243091
17	0xbda6b628	-0.08140212
18	0xbd7e4af3	-0.062083196
19	0xbb34b4f9	-0.0027573688
20	0xbd980c76	-0.07424252
21	0x3d4cffb8	0.05004856
22	0xbcd6c190	-0.026215345
23	0xbcf47a69	-0.029843526
24	0x3df83093	0.1211864
25	0x3cdc32a0	0.026879609
26	0xbbff606e	-0.0077934777
27	0x3cafa8a6	0.021442723
28	0x3c2002a9	0.009766259
29	0xbdc7c599	-0.09754486
30	0x3c2a061d	0.010377434
31	0x3d23291a	0.03983412
32	0x3ce0a38a	0.027421732
33	0xbcf9722e	-0.030449953
34	0xbdbbe1be	-0.09173916
35	0xbe053ca1	-0.1301141
36	0x3db4d059	0.08828802
37	0xbd5e85fe	-0.054327004
38	0xbd4c1aa1	-0.049830083
39	0x3dfcfd02	0.12352945
40	0xbd505001	-0.050857548
41	0xbd2edfde	-0.042693965
42	0xbc10123c	-0.00879341
43	0x3cc94abb	0.024571767
44	0x3d39b92e	0.045342617
45	0xbb908d35	-0.0044113644
46	0x3d561088	0.05226186
47	0x3d800c3e	0.06252335
48	0x3e16a476	0.14711174
49	0xbdbd77af	-0.092513435
50	0xbcc6f312	-0.024285827
51	0xbda32b4d	-0.07967243
52	0x3d25873b	0.04041217
53	0x3dd5ec86	0.10445504
54	0xbd483f40	-0.048888445
55	0xbd38e8c0	-0.045143843
56	0xbd2d7ac6	-0.042353414
57	0xbd89890f	-0.06715595
58	0x3d571cc0	0.052517653
59	0x3d1f97f0	0.03896326
60	0x3d2478e1	0.04015434
61	0xbdfd050c	-0.12354478
62	0xbdd6efd5	-0.10494963
63	0x3bc277c5	0.005934688
64	0xbcd82284	-0.026383646
65	0xbd66c9ea	-0.056344904
66	0x3d148dd3	0.036268067
67	0xbd0c3fc0	-0.034240484
68	0xbd35d804	-0.04439546
69	0x3d3a1d63	0.04543818
70	0xbd8840de	-0.066529974
71	0xbda3fb6e	-0.08006941
72	0x3d946603	0.0724602
73	0x3e30a10f	0.17248939
74	0x3d1ea724	0.038733616
75	0x3dfee416	0.12445848
76	0xbbb292ec	-0.0054496434
77	0xbb8cf813	-0.0043020337
78	0x3db3df0d	0.08782778
79	0xbc80367a	-0.015650976
80	0x3d8e916f	0.06961333
81	0xbc2e081f	-0.010622053
82	0xbdcffa73	-0.10155191
83	0x3c4a4567	0.012345648
84	0x3c251768	0.010076381
85	0x3e26fbb4	0.16306955
86	0xbbb6cfa9	-0.0055789542
87	0xbb5168a6	-0.0031953244
88	0x3d7d1407	0.061786678
89	0x3dd681a3	0.10473945
90	0x3de30831	0.11085547
91	0x3cef1d21	0.029188694
92	0xbd7f349a	-0.062306024
93	0x3e1322e2	0.14368775
94	0xbdbc7d2d	-0.09203563
95	0xbcf387b0	-0.029727787
96	0xbdb85256	-0.09000079
97	0xbd321c39	-0.043483946
98	0xbdb5b9f4	-0.08873358
99	0xbc8d962f	-0.017283527
100	0xbdaf18dd	-0.08549664
101	0x3ddfc08c	0.10925397
102	0x3c3a9ea9	0.011390367
103	0x3bed854c	0.0072485562
104	0xbcafa600	-0.02144146
105	0x3da4ed5c	0.08053085
106	0xbc113f58	-0.0088652
107	0x3d869ab1	0.06572474
108	0x3dd8fdaa	0.105952576
109	0x3e55208f	0.20813201
110	0x3db08818	0.08619708
111	0xbd72978b	-0.059226554
112	0xbd866829	-0.06562836
113	0x3ca06117	0.019577546
114	0xbd915635	-0.07096521
115	0xbc8932bd	-0.016747827
116	0xbd510205	-0.051027317
117	0xbb8024b3	-0.003910625
118	0x3c933812	0.017971072
119	0xbc6edb8b	-0.01457871
120	0x3dc5a90a	0.09651382
121	0x3d803f7d	0.062621094
122	0x3db35dba	0.08758111
123	0x3d3e7bfe	0.046504967
124	0xbd91c966	-0.07118492
125	0xbc9f1592	-0.019419465
126	0x3d36f404	0.044666305
127	0xbcbcee20	-0.023062766
128	0xbd931d5b	-0.071833335
129	0xbb85a478	-0.004078444
130	0xbc93ee9d	-0.018058116
131	0xbe060cb2	-0.1309078
132	0xbcbb8b2b	-0.022893509
133	0x3d23a5ae	0.039952926
134	0x3c4df459	0.012570464
135	0xbd58e23c	-0.05295013
136	0xbc92aa09	-0.017903345
137	0x3c215885	0.009847765
138	0x3d9a6565	0.07538871
139	0xbdb14095	-0.08654896
140	0xba498327	-0.0007687085
141	0x3d74c465	0.05975761
142	0x3c72b2f1	0.014813171
143	0x3db3f44f	0.087868325
144	0xbc1416d2	-0.009038644
145	0xbc5d4a2b	-0.013506453
146	0xbdd68f02	-0.10476495
147	0x3d14cb7e	0.036326878
148	0xbd8b9104	-0.06814769
149	0xbda0b50f	-0.07847034
150	0xbd8e3273	-0.06943216
151	0x3d7fd9bd	0.06246351
152	0x3d1864a7	0.037205365
153	0x3d713b3b	0.058894377
154	0xbdb992e0	-0.09061217
155	0xbddafa64	-0.106922895
156	0xbd43e11d	-0.047822107
157	0xba51d808	-0.00080049084
158	0x3c4d58d2	0.012533383
159	0xbe2364d4	-0.15956432
160	0xbe177e82	-0.14794353
161	0xbe4f9fff	-0.20275877
162	0x3ddb2b7e	0.10701655
163	0x3cfc62cc	0.030808829
164	0xbd5f5344	-0.054522768
165	0x3dd27d92	0.10277857
166	0x3abf1bcb	0.0014580427
167	0xbe0e6247	-0.13904677
168	0xbbdd9e46	-0.0067632524
169	0x3ca6430a	0.020295639
170	0xbdec612d	-0.11541972
171	0x3ded6962	0.11592366
172	0x3c570688	0.013124116
173	0xbd6ae506	-0.05734732
174	0x3cb0c24c	0.021577023
175	0x3d4325ff	0.047643658
176	0xbdbb9ffb	-0.09161373
177	0xbd889f3e	-0.06670998
178	0xbca1483f	-0.01968777
179	0x3d4f4fe8	0.050613314
180	0x3d84ac8c	0.06478223
181	0x3d04e5c7	0.032445695
182	0x3dddaea0	0.10824323
183	0x3c36b70b	0.011152039
184	0x3d15b3c3	0.036548387
185	0xbc7791c7	-0.01511044
186	0x3c976ae9	0.018483596
187	0xbc8d6195	-0.017258445
188	0xbc3d2157	-0.011543593
189	0xbd8009fc	-0.06251904
190	0x3dd1a7c7	0.10237079
191	0x3d324f3b	0.04353259
192	0x3ad63874	0.0016343729
193	0x3dc99a6f	0.09843909
194	0x3d0b1be1	0.033962134
195	0xbc995242	-0.018715981
196	0x3db05406	0.08609776
197	0x3d4612ba	0.048357703
198	0x3bb28348	0.005447779
199	0xbb103c75	-0.0022008691
200	0x3cc1cab2	0.023656223
201	0x3c6da3e2	0.014504405
202	0xbd522945	-0.05130889
203	0x3b36db1c	0.0027901595
204	0x3d82f444	0.06394246
205	0xbcd89635	-0.026438812
206	0xbc963b81	-0.01833892
207	0x3c91fba5	0.017820189
208	0x3cf9e955	0.03050677
209	0xbc8f8748	-0.017520562
210	0xbd5f995e	-0.05458962
211	0x3cadd42b	0.021219334
212	0x3e02cb37	0.12772833
213	0x3cb8cd70	0.022558898
214	0x3d5b7707	0.05358031
215	0x3d40af2d	0.04704206
216	0xbd8335f5	-0.06406776
217	0xbd925341	-0.07144786
218	0xbd872635	-0.06599084
219	0xbd147c16	-0.03625115
220	0xbd03cad9	-0.032175872
221	0x3bd53611	0.0065066894
222	0xbd13d0ed	-0.03608792
223	0xbe0b82fd	-0.13624187
224	0xbe04e06c	-0.12976235
225	0x3d4314d8	0.0476273
226	0x3cc2a22c	0.02375897
227	0x3e30ea77	0.17276941
228	0x3cafee89	0.021476047
229	0x3d156275	0.03647085
230	0xbd00f6e5	-0.031485457
231	0xbddc1e90	-0.10748017
232	0xbdcbc399	-0.09949417
233	0x3dd1270d	0.102125265
234	0x3df19e8e	0.1179782
235	0xbd9db1a3	-0.07699897
236	0xbcd7fdeb	-0.026366195
237	0x3c38ade7	0.01127193
238	0xbd65606c	-0.05600016
239	0xbce92880	-0.028461695
240	0x3c2ffd1b	0.010741497
241	0x3da8ad92	0.08236231
242	0x3cda7d6a	0.02667113
243	0xbc1a410c	-0.009414922
244	0x3d76bc74	0.060238317
245	0x3b57cff5	0.0032930349
246	0x3d83b4f0	0.064309955
247	0x3b617c2a	0.0034406283
248	0xbdc452a3	-0.09586074
249	0xbd6331bd	-0.055467356
250	0xbc708061	-0.014679045
251	0xbd85f4b4	-0.06540814
252	0x3c0b33e9	0.008496263
253	0xbd7355b2	-0.059407897
254	0xbe2b3b83	-0.1672192
255	0x3d93f24d	0.072239496

layer_stack.6.weight f4 [128]
0	0x3fd111d4	1.6333566
1	0x3fe7384c	1.8064055
2	0x3fddce4f	1.7328585
3	0x3fd82a02	1.688782
4	0x3fdae243	1.71003
5	0x3fd60342	1.6719744
6	0x3fd3d55a	1.6549485
7	0x3fd889d1	1.6917058
8	0x3fce96f7	1.6139821
9	0x3fda4351	1.7051793
10	0x3fd3bad8	1.6541395
11	0x3fd21373	1.6412185
12	0x3fdedc18	1.7410917
13	0x3fd54f81	1.6664888
14	0x3fd2cd5a	1.6468918
15	0x3fd1c6b7	1.6388768
16	0x3fdaa169	1.7080508
17	0x3fc9a530	1.5753536
18	0x3fd82d99	1.6888915
19	0x3fef44b5	1.8692843
20	0x3fd879e4	1.6912198
21	0x3fdedd31	1.7411252
22	0x3fd1103d	1.633308
23	0x3fe012ac	1.7505698
24	0x3fd0a959	1.6301681
25	0x3fd50d1f	1.6644629
26	0x3fdd61e5	1.72955
27	0x3fd10ec7	1.6332635
28	0x3fcd3fa4	1.6035047
29	0x3fc882ad	1.5664879
30	0x3fc88520	1.5665627
31	0x3fce871d	1.6134983
32	0x3fd3a68a	1.6535199
33	0x3fcbf943	1.5935444
34	0x3fdc1f43	1.719704
35	0x3fd49c6a	1.6610234
36	0x3fd906eb	1.6955236
37	0x3fd4ec36	1.6634586
38	0x3fd0484c	1.6272063
39	0x3fcee6d8	1.6164198
40	0x3fdc759a	1.7223389
41	0x3fe046af	1.7521571
42	0x3fdb0238	1.7110052
43	0x3fd5a017	1.668948
44	0x3fe9f2d5	1.8277231
45	0x3fd171ef	1.6362895
46	0x3fdf4bac	1.7444968
47	0x3fd1620e	1.6358049
48	0x3fd5bb78	1.6697836
49	0x3feb8296	1.8399227
50	0x3fd380d4	1.652369
51	0x3fe20d19	1.7660247
52	0x3fdbbaed	1.716642
53	0x3fd77636	1.683295
54	0x3fd35cf4	1.6512742
55	0x3fdff80b	1.7497572
56	0x3fe713e6	1.8052948
57	0x3fd1d6e9	1.639371
58	0x3fcfff15	1.624972
59	0x3fd914a1	1.695942
60	0x3fdb2d0f	1.7123126
61	0x3fe43e6f	1.7831553
62	0x3fd8ff78	1.6952963
63	0x3fd4615a	1.6592209
64	0x3fd17e9a	1.6366761
65	0x3fdd5653	1.7291969
66	0x3fe2ad39	1.7709113
67	0x3fcdabae	1.6068017
68	0x3fd3cea6	1.6547439
69	0x3fc99bdf	1.5750693
70	0x3fd0cc3c	1.6312327
71	0x3fd179da	1.6365311
72	0x3fc8ddae	1.5692651
73	0x3fd030a1	1.626484
74	0x3fd0ed99	1.6322509
75	0x3fcd84c9	1.6056148
76	0x3fd630c8	1.6733637
77	0x3fde10b7	1.7348851
78	0x3fd680b6	1.675803
79	0x3fd9a34d	1.700296
80	0x3fda3aae	1.7049158
81	0x3fe259d2	1.7683661
82	0x3fd85b25	1.6902815
83	0x3fd6019f	1.6719245
84	0x3fdc4826	1.7209518
85	0x3fd0e3ce	1.631952
86	0x3fcccab6	1.5999362
87	0x3fc9239d	1.5713993
88	0x3fe73e18	1.8065825
89	0x3fd00d9c	1.6254153
90	0x3fdd59ad	1.7292992
91	0x3fd4c705	1.6623236
92	0x3fcd1d8a	1.602464
93	0x3fd2bdb8	1.6464148
94	0x3fd3d184	1.6548314
95	0x3fd503da	1.66418
96	0x3fcd7491	1.6051198
97	0x3fd52c64	1.6654172
98	0x3fcaf7a7	1.5856827
99	0x3fe18676	1.7619159
100	0x3fcbb039	1.5913154
101	0x3fdb2bc4	1.7122731
102	0x3fd78666	1.683789
103	0x3fefa397	1.8721799
104	0x3fd48895	1.6604182
105	0x3fd80384	1.6876073
106	0x3fdc3ba9	1.7205707
107	0x3fd341d0	1.6504459
108	0x3fd0e19e	1.6318853
109	0x3fd65b83	1.6746677
110	0x3fd60c9e	1.67226
111	0x3fd1757f	1.6363982
112	0x3fdebc15	1.7401148
113	0x3fd3a619	1.6535064
114	0x3fdbd5b5	1.7174593
115	0x3fd1d722	1.6393778
116	0x3fd744fd	1.6817929
117	0x3fe3c1c9	1.7793514
118	0x3fcfd9b0	1.6238308
119	0x3fda1c82	1.703995
120	0x3fcd1323	1.6021465
121	0x3fd44028	1.6582079
122	0x3fd49655	1.6608378
123	0x3fd6c472	1.67787
124	0x3fca8eac	1.582479
125	0x3fe02383	1.7510837
126	0x3fd91e21	1.696232
127	0x3fd9cd58	1.7015791

layer_stack.6.bias f4 [128]
0	0x3e0158c8	0.12631524
1	0x3e8fb5ec	0.28068483
2	0x3e001951	0.12509657
3	0x3e8e259a	0.27763063
4	0x3e42f744	0.19039637
5	0x3da68dca	0.08132513
6	0x3ce52bdc	0.027975015
7	0x3de5773f	0.11204385
8	0x3e8971e3	0.268447
9	0x3d2c2020	0.042022824
10	0x3e45eafe	0.19327924
11	0x3e0932d5	0.13398297
12	0x3d5e37f1	0.05425257
13	0x3c14d6d3	0.009084421
14	0x3de05ce0	0.109552145
15	0x3e0e3aa6	0.1388956
16	0x3de8723b	0.11349913
17	0x3e1846dd	0.14870782
18	0x3da8cccf	0.08242189
19	0x3e8a753d	0.2704257
20	0x3e14d5d8	0.145347
21	0x3e0d7e43	0.13817696
22	0x3e0b563f	0.13607119
23	0x3d76423c	0.06012176
24	0xbbd3611d	-0.006450786
25	0x3df9b5c4	0.12192872
26	0x3f862348	1.0479517
27	0x3dfaa53e	0.12238549
28	0x3e381f9e	0.17980811
29	0x3e004284	0.12525374
30	0x3df4f6c9	0.11961133
31	0x3ed79ae1	0.4211035
32	0x3e21e4e5	0.15809973
33	0x3e11f3d2	0.14253166
34	0x3d1e7f27	0.03869548
35	0x3e49c11d	0.19702573
36	0x3d470bd5	0.04859527
37	0x3da0e90c	0.0785695
38	0x3f3c243d	0.73492795
39	0x3ea24abf	0.31697652
40	0x3e4e0fea	0.20123258
41	0x3da3c128	0.07995826
42	0x3e2ecc03	0.17070012
43	0x3df1858f	0.117930524
44	0x3d356efb	0.044295292
45	0x3be7b861	0.00707154
46	0x3e221f28	0.15832198
47	0x3e7b6fe5	0.24554403
48	0x3f46e766	0.77696836
49	0x3e4687d0	0.19387746
50	0x3f03ca58	0.5148063
51	0x3e157d2e	0.14598534
52	0x3e6b9370	0.23005462
53	0x3d4aa2ac	0.049471542
54	0x3e210e58	0.15728128
55	0x3d19bd3f	0.037533995
56	0x3e59a830	0.21255565
57	0x3def4fc1	0.11685134
58	0x3e9013ae	0.28140014
59	0x3d1fbbf9	0.038997624
60	0x3da67f51	0.081297524
61	0x3c766f77	0.015041224
62	0x3e9e7816	0.30950993
63	0x3cc5afd9	0.024131702
64	0x3e5755b4	0.21028787
65	0x3bef7996	0.0073081953
66	0x3e3171a0	0.17328501
67	0x3f2355e7	0.6380295
68	0xbbc0415b	-0.005867166
69	0x3f06f7aa	0.52721655
70	0x3e4ac7d7	0.19802795
71	0x3e189d59	0.14903773
72	0x3df21635	0.11820642
73	0x3dd09105	0.1018391
74	0x3e76c450	0.24098325
75	0x3e08fc2d	0.13377447
76	0x3e3f2a4f	0.18668483
77	0x3dcdb55b	0.100443564
78	0x3e0f3680	0.13985634
79	0x3d4fd7c4	0.05074288
80	0x3e48c39e	0.19605872
81	0x3e114c00	0.14189148
82	0x3e226c25	0.15861566
83	0x3e9a5004	0.30139172
84	0x3dc4eef5	0.0961589
85	0x3e6ac3c8	0.22926247
86	0x3e162aed	0.14664812
87	0x3de9d2ea	0.11417182
88	0x3c80b95b	0.015713384
89	0x3e2d78d9	0.16940631
90	0x3dcc4a6d	0.09975133
91	0x3d89f684	0.06736472
92	0x3d5779d5	0.052606422
93	0x3e36aebb	0.17840092
94	0x3d40879d	0.04700433
95	0x3f6be8ff	0.921524
96	0x3dfbd857	0.12297123
97	0x3e43d002	0.19122317
98	0x3e28a602	0.16469577
99	0x3d8c41ca	0.06848486
100	0x3d9aa64d	0.075512506
101	0x3d3674d1	0.044545
102	0x3e14c4fc	0.14528269
103	0x3c97f778	0.01855062
104	0x3e8544f7	0.26029179
105	0x3e5bde9f	0.21471642
106	0x3dc9dcc2	0.09856559
107	0x3e58ea0e	0.21183035
108	0x3e4ae2ec	0.19813126
109	0x3df0ae06	0.11751942
110	0x3d87d5d8	0.06632584
111	0x3f20c3f4	0.62799
112	0x3d361a62	0.044458754
113	0x3d95f199	0.07321472
114	0x3d2d1017	0.042251673
115	0x3c2ca83b	0.010538156
116	0x3e3a51ac	0.18195218
117	0x3d638b45	0.05555274
118	0x3e07b21e	0.1325154
119	0x3dc30f2b	0.095243774
120	0x3d997af6	0.07494156
121	0x3d9260c3	0.07147362
122	0xbc8a8335	-0.016908268
123	0x3e5b73de	0.21430919
124	0x3e15ac84	0.1461659
125	0x3e55e1a2	0.20886853
126	0x3eaff959	0.34369925
127	0x3c063cf4	0.008193243

layer_stack.6.running_mean f4 [128]
0	0xbd37f9b5	-0.044915874
1	0xbe9c5904	-0.30536664
2	0x3f3ecaf6	0.74528444
3	0xbea3d49a	-0.3199814
4	0x3daa91ef	0.08328616
5	0xbdea95f8	-0.114543855
6	0xbf5cfa21	-0.86319166
7	0xbf80a462	-1.0050166
8	0x3eb1b28f	0.34706542
9	0xbf590c1f	-0.8478412
10	0x3e951880	0.29120255
11	0x3e9f5d97	0.3112609
12	0xbf7b185c	-0.98084044
13	0xbf5db9b3	-0.8661148
14	0xbf053f98	-0.5205016
15	0x3ea014f6	0.31265992
16	0xbf1cfdaf	-0.6132459
17	0xbeaa618a	-0.3327754
18	0xbf49b23c	-0.7878759
19	0xbcbbfbd7	-0.022947235
20	0x3f334d05	0.700394
21	0xbea0430c	-0.31301153
22	0x3e913339	0.28359392
23	0xbf497111	-0.7868815
24	0x3e1e1f8e	0.15441725
25	0xbefc8b3c	-0.49324977
26	0x3da53f07	0.08068662
27	0x3e7d0456	0.24708685
28	0xbd8764b2	-0.06611003
29	0x3deb0440	0.1147542
30	0x3ee9a4af	0.45633456
31	0x3e254f9c	0.1614365
32	0x3e859465	0.2608978
33	0x3e8e0e7b	0.27745423
34	0x3efd2426	0.49441642
35	0x3ef9f0b0	0.48816442
36	0xbc2a1888	-0.010381825
37	0xbf0cd9e7	-0.5501999
38	0xbe8beb02	-0.27327734
39	0x3e21e1c2	0.15808776
40	0x3e0fcd03	0.1404305
41	0x3e1e0868	0.15432894
42	0x3f070615	0.52743655
43	0xbef05f15	-0.46947542
44	0xbec6aeca	-0.38805228
45	0xbf25fc7a	-0.64838374
46	0xbd667d60	-0.05627191
47	0xbe8e9d5f	-0.2785444
48	0xbe590d51	-0.21196486
49	0xbe426150	-0.18982434
50	0x3ef19da9	0.47190598
51	0xbf0dc837	-0.5538363
52	0x3e068c7b	0.13139527
53	0xbf3c15b8	-0.7347064
54	0x3e921783	0.28533563
55	0xbeeedb0f	-0.46651503
56	0x3e3d5c3d	0.18492217
57	0x3f138ae2	0.57633793
58	0xbf076581	-0.5288926
59	0x3ee2ece0	0.44321346
60	0xbf3ce085	-0.7378009
61	0xbf534dc3	-0.8254053
62	0x3ed5e26d	0.41774312
63	0xbf1a23a0	-0.6021061
64	0x3e9f8467	0.31155702
65	0xbf5037da	-0.8133522
66	0xbe184eb1	-0.14873768
67	0x3c6d897c	0.014498111
68	0xbf747026	-0.95483625
69	0xbdfb86e4	-0.12281588
70	0x3e9349f2	0.28767353
71	0x3e3fff07	0.18749629
72	0x3ec20186	0.37891787
73	0x3f0973c2	0.5369226
74	0x3eb5bdd8	0.35496402
75	0x3f33ab9a	0.7018372
76	0xbe75d8d6	-0.24008498
77	0xbf417d7f	-0.75582117
78	0xbe100994	-0.14066154
79	0xbefa60de	-0.4890203
80	0x3e65a3a2	0.22425702
81	0x3d262bc0	0.040569067
82	0x3e1c0bce	0.15238878
83	0x3f27330d	0.6531227
84	0x3eb7414d	0.35792008
85	0x3ea841a1	0.3286257
86	0xbe662111	-0.22473551
87	0x3e32d931	0.17465664
88	0xbf2e2ccd	-0.6803711
89	0x3de5fe3a	0.112301305
90	0x3eeb5f44	0.4597112
91	0xbf4030d5	-0.7507451
92	0xbf30f7bb	-0.69128007
93	0x3ee68790	0.450253
94	0xbf28040d	-0.6563118
95	0x3de4981c	0.11161825
96	0x3e6bffcc	0.23046798
97	0x3e2c8dbf	0.16850947
98	0x3f005201	0.5012513
99	0xbf87cd7e	-1.0609586
100	0xbe84e5c9	-0.25956562
101	0x3ea2cbc3	0.31796083
102	0xbf16e050	-0.58936024
103	0xbf14a62c	-0.5806606
104	0x3e955a90	0.29170656
105	0x3efdc302	0.49562842
106	0xbe0479ad	-0.1293704
107	0x3e9429d6	0.28938168
108	0xbcc1a41f	-0.02363783
109	0xbeb3e11f	-0.3513269
110	0xbe49cdfb	-0.19707482
111	0x3eb7a115	0.35865083
112	0xbf29f047	-0.6638226
113	0xbf318689	-0.6934591
114	0xbf3bb8ea	-0.7332903
115	0xbe1469c4	-0.14493471
116	0x3f217be1	0.6307965
117	0xbf9144f5	-1.1349169
118	0x3d6f8e9f	0.058485623
119	0xbda1faad	-0.07909141
120	0xbf17752f	-0.5916318
121	0xbf71a687	-0.94394726
122	0xbeb8b44b	-0.36075053
123	0x3f0db39e	0.553522
124	0xbd2954d7	-0.041340675
125	0x3b8a4adb	0.0042203492
126	0x3d65c7f4	0.056098893
127	0xbf577b2e	-0.8417233

layer_stack.6.running_var f4 [128]
0	0x3e685f67	0.22692643
1	0x3e5e58f2	0.21713617
2	0x3e348758	0.17629755
3	0x3e6eb07e	0.23309514
4	0x3e6bcd54	0.23027545
5	0x3e457e62	0.19286492
6	0x3e01a0a1	0.12658931
7	0x3e525001	0.20538332
8	0x3e81a9ec	0.25324953
9	0x3e338675	0.1753176
10	0x3e3e676b	0.18594138
11	0x3e2f9f95	0.1715072
12	0x3e12f320	0.14350557
13	0x3e2049d7	0.15653168
14	0x3e65a24b	0.22425191
15	0x3e587d5e	0.21141574
16	0x3e3a1dd8	0.18175447
17	0x3e3f3ceb	0.18675582
18	0x3e2e6ad6	0.17032942
19	0x3e719f5d	0.23595949
20	0x3e18f6da	0.14937916
21	0x3e2e41bf	0.17017268
22	0x3e31164f	0.17293666
23	0x3e0ebb9c	0.13938755
24	0x3e287d7d	0.1645412
25	0x3e38baed	0.18040057
26	0x3e1b748a	0.15181175
27	0x3e3b293d	0.1827745
28	0x3e5a4be6	0.21318015
29	0x3e325f88	0.17419255
30	0x3e2937a2	0.16525128
31	0x3e3f7e07	0.1870042
32	0x3e4b75c3	0.19869141
33	0x3e6a9aa6	0.22910556
34	0x3e30000c	0.17187518
35	0x3e5b71d3	0.21430139
36	0x3e3f3e4a	0.18676105
37	0x3e130fa6	0.14361438
38	0x3e287670	0.1645143
39	0x3e67363d	0.22579284
40	0x3e670b4b	0.22562902
41	0x3e31b8fd	0.17355724
42	0x3e0feed9	0.14055957
43	0x3e45cccf	0.1931641
44	0x3e3a2659	0.18178691
45	0x3e2e6418	0.1703037
46	0x3e2cc2d8	0.16871202
47	0x3e2f6b47	0.17130767
48	0x3e40365d	0.18770738
49	0x3e808486	0.25101107
50	0x3e64a2d0	0.22327733
51	0x3e186ec9	0.14886011
52	0x3e3e73ec	0.18598908
53	0x3e06e44e	0.13173029
54	0x3e181430	0.14851451
55	0x3e1783c7	0.14796363
56	0x3e59a024	0.21252495
57	0x3e19e623	0.15029196
58	0x3e84e3fe	0.25955194
59	0x3e639637	0.22225271
60	0x3e1e30dc	0.15448326
61	0x3e08b1bc	0.1334905
62	0x3e6157f3	0.22006206
63	0x3e237961	0.15964271
64	0x3e2752a3	0.16340117
65	0x3e19ff34	0.15038759
66	0x3e622b53	0.2208684
67	0x3e69d7b2	0.22836187
68	0x3e10bcd6	0.14134535
69	0x3e87237c	0.2639426
70	0x3e665f09	0.2249719
71	0x3e8140b9	0.25244692
72	0x3e1dd9bc	0.1541509
73	0x3e27d15d	0.1638846
74	0x3e79f3d4	0.2440942
75	0x3e4be7e9	0.19912685
76	0x3e47491d	0.19461484
77	0x3e1fc4f3	0.15602474
78	0x3e6e317a	0.23261061
79	0x3e2661f7	0.16248308
80	0x3e49ffb8	0.19726455
81	0x3e10804f	0.14111446
82	0x3e1d9e8d	0.15392514
83	0x3e05247d	0.130022
84	0x3e42b55d	0.19014497
85	0x3e7b6fc4	0.24554354
86	0x3e6eab73	0.2330759
87	0x3e34fab3	0.17673759
88	0x3e1cca13	0.1531146
89	0x3e3ce687	0.18447314
90	0x3e3fa2a5	0.18714388
91	0x3e3d6d9b	0.18498842
92	0x3e53348a	0.20625511
93	0x3e60ab0c	0.21940249
94	0x3e3938d2	0.18088081
95	0x3e365e64	0.17809445
96	0x3e2a761f	0.16646622
97	0x3e729688	0.23690236
98	0x3e310297	0.17286144
99	0x3e230752	0.15920761
100	0x3e457532	0.19282988
101	0x3e5f3cd5	0.2180055
102	0x3e3829e9	0.17984737
103	0x3e530536	0.20607457
104	0x3e605e41	0.21910955
105	0x3e0f4f9d	0.13995214
106	0x3e29fa08	0.16599286
107	0x3e6918a6	0.22763309
108	0x3e5132ed	0.20429583
109	0x3e4ac60f	0.19802116
110	0x3e3477d4	0.17623836
111	0x3e4e7f7d	0.2016582
112	0x3e0f3e25	0.1398855
113	0x3e463814	0.1935733
114	0x3e7d2301	0.24720384
115	0x3e4c31dd	0.19940896
116	0x3e00b1bc	0.125678
117	0x3e106e4a	0.14104572
118	0x3e92a9cc	0.2864517
119	0x3e410436	0.18849263
120	0x3e3ff043	0.18743996
121	0x3e1eff0e	0.15526983
122	0x3e45583e	0.19271943
123	0x3e0b568b	0.13607232
124	0x3e265b56	0.1624578
125	0x3e6d06b7	0.23147093
126	0x3e75cf5e	0.24004886
127	0x3e056b17	0.13029133

layer_stack.8.weight f4 [1, 128, 4, 4]
0	0x3ee816f6	0.45330018
1	0x3ed3a003	0.41333017
2	0x3f22db48	0.63615847
3	0xbec24b38	-0.37948012
4	0x3f11591e	0.5677661
5	0xbd56bb82	-0.052424915
6	0xbbbceb6a	-0.005765368
7	0xbecd958e	-0.40153164
8	0x3e7437d9	0.23849429
9	0x3e69b573	0.22823124
10	0x3f890198	1.0703611
11	0xbeae4e19	-0.3404396
12	0x3f135bf8	0.5756221
13	0xbee68fa0	-0.45031452
14	0xbe9bb011	-0.30407766
15	0xbed824a0	-0.42215443
16	0xbead7d91	-0.33884862
17	0xbe640140	-0.22266102
18	0xbe92a3a2	-0.28640467
19	0x3f2a2720	0.6646595
20	0x3f3af3dc	0.7302835
21	0xbeb63fbd	-0.35595503
22	0x3f0f0c97	0.55878586
23	0xbcfec11b	-0.03109794
24	0x3f5e2b84	0.8678515
25	0xbe838f5c	-0.25695312
26	0x3faa277d	1.3293301
27	0xbe88363b	-0.26603875
28	0xbe8d447c	-0.27591312
29	0x3e14c035	0.14526446
30	0xbeac48fb	-0.3364943
31	0x3e95de50	0.29271173
32	0x3f00ad34	0.50264287
33	0x3e8ff9a1	0.2812014
34	0x3e3586bc	0.17727178
35	0x3f0bf6ae	0.5467328
36	0xbe86fda9	-0.26365402
37	0xbf362e7b	-0.71164674
38	0x3eae2ea4	0.3401996
39	0x3ef50845	0.47857872
40	0xbdb10e2c	-0.08645281
41	0xbe844202	-0.2583161
42	0xbcaf8318	-0.021424815
43	0x3ed34d9c	0.4127015
44	0xbee2c479	-0.44290522
45	0x3f111c54	0.5668385
46	0x3f108219	0.56448513
47	0xbebfaa94	-0.37434828
48	0xbf17042a	-0.5899073
49	0x3eb24ff2	0.34826618
50	0x3ed95fae	0.4245581
51	0x3ed9c046	0.42529505
52	0xbf02eab8	-0.511394
53	0x3e914a81	0.28377154
54	0xbea8aa8d	-0.3294262
55	0xbf4996f9	-0.7874599
56	0xbf17f94b	-0.59364766
57	0xbe17451d	-0.14772458
58	0x3eaa29ea	0.33235103
59	0x3e1d5df2	0.15367869
60	0xbf195abb	-0.5990407
61	0xbeb38e48	-0.3506949
62	0xbd11eb52	-0.03562481
63	0x3ea74875	0.32672468
64	0x3f0e5a9a	0.55606997
65	0x3f2bd37a	0.6711956
66	0x3ec4208e	0.38306087
67	0xbec76065	-0.3894073
68	0x3eced776	0.4039876
69	0xbe83319b	-0.25623783
70	0x3f2e35e1	0.6805096
71	0xbec39f1a	-0.38207322
72	0x3f042ba5	0.51629096
73	0xbd8e65e3	-0.06953027
74	0x3f3d97d3	0.7405979
75	0xbed223c5	-0.41042915
76	0x3f007f4f	0.5019426
77	0xbe9d5746	-0.30730647
78	0xbea35c00	-0.31906128
79	0xbee09588	-0.43864083
80	0x3ee1533d	0.44008818
81	0xbeaf8775	-0.34283033
82	0x3f6e7873	0.9315254
83	0xbeed3e2d	-0.463365
84	0x3e8800b8	0.26563048
85	0x3e013ec3	0.12621598
86	0x3e785713	0.24251966
87	0xbea5dc00	-0.3239441
88	0x3f3eb747	0.7449841
89	0x3e2da969	0.16959156
90	0xbe48fb10	-0.19627023
91	0xbef4da0a	-0.478226
92	0xbf0085d6	-0.5020422
93	0xbed409d6	-0.41413754
94	0xbefec303	-0.49758157
95	0xbefa9ccc	-0.48947752
96	0xbf11a0d7	-0.5688605
97	0xbf026e51	-0.5094958
98	0x3f1210b1	0.5705672
99	0x3e2f4cb7	0.17119108
100	0xbea05ed7	-0.31322357
101	0x3e306ab1	0.172282
102	0xbea4190e	-0.32050365
103	0x3f1cfe67	0.6132569
104	0xbea17938	-0.31537795
105	0x3e6007e6	0.21878013
106	0xbe28f5b6	-0.16499981
107	0x3f0241df	0.5088176
108	0xbf0d3f6a	-0.5517489
109	0xbdc94e07	-0.09829336
110	0xbefe72a1	-0.4969683
111	0x3eb4a5be	0.352827
112	0xbf03985f	-0.51404375
113	0x3fa106ac	1.2580161
114	0x3f29b170	0.66286373
115	0x3e99b5c7	0.30021498
116	0xbedb1a57	-0.42793533
117	0xbea51c8b	-0.3224834
118	0x3e10bd68	0.14134753
119	0x3edc5a9b	0.43037876
120	0xbee1033c	-0.4394778
121	0x3efaaca8	0.4895985
122	0xbe147e74	-0.14501363
123	0xbe9664a8	-0.2937367
124	0xbed98563	-0.42484578
125	0xbe4b093c	-0.19827741
126	0xbd6bbfa6	-0.057555817
127	0xbec52b70	-0.38509703
128	0xbef32408	-0.47488427
129	0xbed17cb0	-0.40915442
130	0xbed200a4	-0.41016114
131	0xbd5b5fcc	-0.053558156
132	0x3f25f52e	0.6482724
133	0x3f159df4	0.5844414
134	0x3ebc1666	0.3673584
135	0xbe47a3c1	-0.19496061
136	0x3e7010c3	0.23443894
137	0xbc9997b5	-0.018749097
138	0xbd721be6	-0.059108637
139	0xbe9649fe	-0.29353327
140	0x3f13c306	0.5771946
141	0x3f8122b9	1.0088722
142	0x3f237aac	0.6385906
143	0x3f5c4b65	0.8605254
144	0x3ef5c348	0.4800055
145	0xbf050209	-0.5195623
146	0xbd93bec6	-0.072141215
147	0x3e9d811c	0.30762565
148	0xbeced26c	-0.40394914
149	0x3fb22a63	1.3919185
150	0x3db95bed	0.090507366
151	0xbef455df	-0.47721764
152	0xbeb557ce	-0.35418552
153	0x3d5aa33b	0.053378325
154	0x3e455d7f	0.19273947
155	0xbe6a8643	-0.2290278
156	0xbef86a9c	-0.48518836
157	0xbedb4229	-0.42823914
158	0xbef2a780	-0.47393417
159	0xbef6b543	-0.48185167
160	0xbef38cac	-0.47568262
161	0xbe21f051	-0.1581433
162	0x3e4572eb	0.19282119
163	0x3ea01e4e	0.3127312
164	0xbf178ea4	-0.5920203
165	0xbea84f60	-0.32873058
166	0xbeed6fb3	-0.46374282
167	0x3ed54505	0.4165422
168	0xbefe2454	-0.4963709
169	0x3e80dcce	0.2516846
170	0x3d5f1fa6	0.05447354
171	0x3ed89e8a	0.42308456
172	0xbf2b97eb	-0.67028683
173	0x3ca2cb56	0.019872349
174	0x3ea93d7f	0.3305473
175	0x3ef42a52	0.47688538
176	0x3f02355a	0.5086266
177	0x3ee6a9f7	0.45051548
178	0x3ecd4004	0.40087903
179	0x3f0adcb1	0.54243
180	0x3e142f99	0.14471282
181	0xbddc01cf	-0.107425325
182	0x3e6197a6	0.22030506
183	0xbeb88c75	-0.3604466
184	0x3ef26907	0.47345755
185	0x3ebde98a	0.3709224
186	0xbc9f7147	-0.019463195
187	0xbf28dc67	-0.6596131
188	0x3ea5f70d	0.32415047
189	0x3e931af9	0.28731516
190	0x3f0c8e57	0.54904693
191	0xbe93f870	-0.2890048
192	0xbf188d73	-0.59590834
193	0xbe8d9316	-0.2765128
194	0x3f79b522	0.9754201
195	0x3e4e7246	0.2016078
196	0xbeea1946	-0.45722407
197	0xbe46466b	-0.193628
198	0x3eb74a1e	0.35798734
199	0xbefddde6	-0.49583358
200	0xbee2c5c7	-0.44291517
201	0x3e2823c3	0.16419892
202	0xbe90fc30	-0.28317404
203	0xbed5e6c8	-0.41777635
204	0xbeffd8a5	-0.49969974
205	0x3eebbc2c	0.46042
206	0x3f528569	0.8223482
207	0x3f0b7b36	0.5448488
208	0xbf2088f3	-0.6270897
209	0xbf1b8f5a	-0.6076561
210	0xbed7f427	-0.4217846
211	0xbf1f4655	-0.62216693
212	0xbeb5b029	-0.35485962
213	0x3e40cd6e	0.18828365
214	0x3d46bdce	0.048520856
215	0x3e454e33	0.19268112
216	0xbea70f4b	-0.32628855
217	0xbe6c037a	-0.23048201
218	0xbe3facca	-0.18718258
219	0xbde9bad7	-0.1141259
220	0x3f18f252	0.5974475
221	0x3e3ec9ff	0.18631743
222	0x3f42e905	0.7613681
223	0x3e6f0c1d	0.23344465
224	0xbe892ea0	-0.26793385
225	0x3eddb018	0.4329841
226	0x3e1e5d14	0.15465194
227	0xbe5a1078	-0.21295345
228	0x3ea3cee7	0.3199379
229	0x3b0eecc4	0.0021808604
230	0x3fa1eaf9	1.2649833
231	0xbe7513aa	-0.23933282
232	0x3eb3f46a	0.3514741
233	0x3eebacc5	0.4603025
234	0xbeaf0273	-0.34181556
235	0xbe7cbfb2	-0.24682501
236	0xbe31d3c2	-0.17365935
237	0xbe9542c4	-0.291525
238	0xbe9c8469	-0.3056977
239	0xbeb96eeb	-0.36217436
240	0x3f123505	0.5711215
241	0x3ef12f84	0.47106564
242	0x3f06b835	0.5262483
243	0x3f092944	0.5357859
244	0xbedc109a	-0.42981416
245	0xbefa5cb7	-0.4889886
246	0xbd2883f9	-0.041141484
247	0xbed7d561	-0.42154983
248	0xbf1f0281	-0.62113196
249	0xbc5766c0	-0.013147056
250	0x3e36b0c5	0.1784087
251	0xbedd31c9	-0.43202046
252	0x3ee245b7	0.44193813
253	0x3e807f61	0.25097182
254	0x3eba79e9	0.36421135
255	0xbe9341cc	-0.28761137
