models/discriminator.pth (torch, 555459 bytes, 3 tensors)

layer_stack.0.weight f4 [64, 1, 4, 4]
00000000: efe3 d2bd a1bb ceba 5904 0b3d f1d1 88bc
00000010: 4976 9cbb 668b 02bf def0 f7bd 3672 9d3d
00000020: 46ec fb3c 1293 fb3d 75a1 8c3e 4f25 99bd
00000030: cfe1 dfbc f513 383d de67 5bbc 3602 663d
00000040: af91 3e3e 2072 2e3e b7c6 42be 983c 2abe
00000050: a9cb adbd e471 5a3e fc30 5f3e 8936 93be
00000060: cd72 da3d 06fb 323e d50a 47be f0ca 13be
00000070: 607c a83b 23ac f53d 6fd5 b33d 5f64 5abe
00000080: 0f95 aabd 20b2 57be e910 fd3d 7ee1 173d
00000090: f330 e8bd 7a5d 513d 03c5 84bd 56d9 c8bd
000000a0: 8f05 aa3e 9010 2e3d 9dc8 9cbd 6c09 793d
000000b0: d940 0e3e 2cd3 bf3e 1286 03bf 85a8 d83e
000000c0: ec65 30be 8910 203e 190c f93c d275 933d
000000d0: 6e6d bc3e b868 4abf c114 d53d 7d81 403e
000000e0: fbc3 963c 9ed4 9c3c db56 983d 26ee 88bd
000000f0: 75e6 513d 93d4 d63d 7f86 6dbe 829c 2a3e
00000100: b74c d0bc 2d5f bbbe ab94 a4be 910b b23e
00000110: 965f c73e 5a2a 5e3d 6f15 4abc b9c9 33bb
00000120: 387d ba3c e17f a6bc e6e8 df3c 6d16 cbbb
00000130: 5a64 08bd 14da 3a3c 583b bfbb f522 cbbb
00000140: 2a42 c53e 6871 333e cf60 883d f6b2 d93d
00000150: e35c 65be 630d f9be 79b5 aebe 97f7 003f
00000160: 7076 f7bc af82 903d c6f7 3e3e 4cb8 66be
00000170: 4685 b03e cff6 a6bc 7e20 62bd 9654 aabc
00000180: d27a 3aba 6ab9 2d3d bcb0 4e3e 2b63 78be
00000190: 6b33 e5bd 16e8 1a3e 25b4 593e baec 213e
000001a0: 60b9 50be 1a88 95be dd68 173e 3c9c 153e
000001b0: 124a 093e a160 76be 1e48 debd 31eb cc3b
000001c0: 79aa 2e3d ae30 69bd 8f66 433a e272 ca3e
000001d0: 752a 3fbe c692 f2bd aff4 ca3d 4e6d fd3c
000001e0: 2406 bcbc 2638 c5bd 80b9 98bd 6b83 2a3e
000001f0: d980 4fbe 6563 49bd 3ef1 873e 89be 3e3e
00000200: d597 7bbd e256 fdbc c083 853e 82d6 82bd
00000210: 5d77 2a3d 8fb9 2cbe d210 fe3d 2591 20be
00000220: 2d66 a3be d98c 223f 9c77 4bbd 5686 06be
00000230: 8ee8 893c f0b3 2d3e fc93 c0be bc87 fd3d
00000240: e24f a1bd 8e0e 163e 9394 7cbd 81f8 8cbe
00000250: 15ed 4bbe b598 093e 578e 5abd 108f 20be
00000260: 360e 1f3e bbb0 4b3e 650d 853e 2613 693e
00000270: 6254 ff3d a392 c7bd 7b24 53be 2405 eebd
00000280: 00a3 0bbc 5ce2 133e e0b6 cbbc 90a8 813c
00000290: 1609 d6bd 11fa 6b3d 870e 4d3f 5873 8fbd
000002a0: 2bde 8a3d f63c 17bd 2b39 dcbe 5a38 34be
000002b0: 610a 9ebc d7c8 1f3d 7e27 893b afdf eb3c
000002c0: b497 8dbe f117 e6bc 6303 603e 59ed 1a3e
000002d0: 00ef 87be a7e0 93bc fb04 033e b4a7 4bbe
000002e0: e7f3 623e 5d2b 883e a7a9 393e 3898 4a3e
000002f0: b30a d8bd 56b9 26be e88d 1fbe a9f2 16be
00000300: 6b1d 89ba 825b 06be d082 f53d ca2d 023e
00000310: 0605 023a 6976 4bbe a428 02be a064 933e
00000320: 0295 45be 3e54 553e 1d4a 1abc 4e66 8c3d
00000330: eb98 90bc f4cb c0be a302 463e 7695 553d
00000340: ffbc 513e 44c8 263d 93bc 4e3d a7db 80be
00000350: 9237 29be eaf7 223e 08de 983e 0ed4 f6bd
00000360: 2a0b 7bbe 2946 f53c 7aca 043e bae1 d0bd
00000370: 8342 523e cd5e 91be d732 83be 4cd9 9d3e
00000380: 4d09 1a3d 48d4 8cbc 9f1a 183d 3196 463d
00000390: 80e4 203e 5293 993c b930 febd 11f9 eb3c
000003a0: 5e16 7dbe 55a5 c5b9 71bf 153d 02e0 e8bc
000003b0: 85c0 98bc 51d2 15bf 7272 e43e 5c05 453c
000003c0: 8d34 72be 2fee 9dbc a9ca 803e ec66 c73b
000003d0: cd64 2c3e 38d7 9bbe 401b aa3e 16e4 113e
000003e0: f01c 6cbd 3a00 aabe feec 9b3d 09f3 c4bc
000003f0: ef81 08bd 0542 563d cce0 d63d a498 f9bd
-0.10297381 -0.001577247 0.033939693 -0.01670167 -0.004774843 -0.50993955 -0.12106489 0.076878
0.030752312 0.12283911 0.27466932 -0.07477819 -0.027329354 0.044940908 -0.013391463 0.056154452
0.18610261 0.17035723 -0.19021116 -0.16624677 -0.08486111 0.21332508 0.2179603 -0.28752545
0.10666428 0.1747857 -0.19437726 -0.14432883 0.00514178 0.11995723 0.087809436 -0.21327351
-0.08329212 -0.21064043 0.12356741 0.03708028 -0.11337461 0.051114537 -0.064828895 -0.098070785
0.33207366 0.042496264 -0.076554514 0.0608 0.13891925 0.374658 -0.5137645 0.4231607
-0.1722638 0.15631308 0.030401276 0.07200207 0.36802238 -0.7906604 0.10404349 0.18799396
0.018403998 0.019144353 0.07438441 -0.06686048 0.05124517 0.10489764 -0.23195837 0.16661265
-0.025427205 -0.3659605 -0.32144675 0.3477445 0.38940114 0.05423961 -0.012334212 -0.0027433468
0.022764787 -0.02032465 0.027332734 -0.0061977417 -0.033298828 0.011404533 -0.0058359317 -0.0061992356
0.38527042 0.1752373 0.0665909 0.10629837 -0.22398715 -0.48643026 -0.34122828 0.5037779
-0.030207843 0.07056176 0.18649206 -0.22531241 0.3447668 -0.02038136 -0.05520677 -0.020792287
-0.00071136386 0.042413153 0.20184606 -0.2425658 -0.11191448 0.15127596 0.21260126 0.1581296
-0.20383215 -0.292054 0.14786096 0.1461038 0.13407162 -0.24060299 -0.10853599 0.006253623
0.042643044 -0.05693119 0.0007453942 0.39540774 -0.1866854 -0.11844401 0.09909951 0.03093591
-0.022952147 -0.0962985 -0.07457256 0.16651694 -0.20263995 -0.049167056 0.2655124 0.18627371
-0.061424095 -0.030925218 0.2607708 -0.0638857 0.04161774 -0.1686766 0.12405552 -0.15680368
-0.3191389 0.63496166 -0.049674615 -0.13137183 0.016834524 0.16963172 -0.37612903 0.12379405
-0.078765646 0.1465399 -0.06166513 -0.27533343 -0.19914658 0.1343716 -0.053358402 -0.15679574
0.15532765 0.19891636 0.25986782 0.22761211 0.124672666 -0.097447656 -0.20619385 -0.11622074
-0.008522749 0.14441818 -0.024867475 0.015827447 -0.10450952 0.05761153 0.8010029 -0.07004422
0.067806564 -0.03692337 -0.43012366 -0.17599621 -0.019292058 0.039009895 0.004185616 0.028793184
-0.27654803 -0.028087588 0.21876292 0.15129603 -0.2654953 -0.018051459 0.12794869 -0.19888192
0.22163354 0.26595584 0.18131123 0.1978463 -0.10548916 -0.16281638 -0.15581477 -0.14741005
-0.0010461038 -0.13120845 0.11987841 0.1271278 0.0004959855 -0.19869389 -0.12710816 0.28787708
-0.19295123 0.20832917 -0.009417084 0.068554506 -0.017651042 -0.37655604 0.19336943 0.05214449
0.20482253 0.040718332 0.050472807 -0.2516758 -0.16525105 0.15914884 0.29856896 -0.12052165
-0.24515978 0.029940682 0.12967864 -0.10199304 0.20533185 -0.2839264 -0.25624725 0.30829847
0.037606526 -0.017191067 0.037134763 0.048483077 0.15712166 0.018747006 -0.12411637 0.028805288
-0.24715564 -0.0003769795 0.036559526 -0.028427128 -0.018646488 -0.5852404 0.44618565 0.012025204
-0.23652859 -0.019278614 0.25154617 0.0060852673 0.16835327 -0.30437636 0.33223915 0.14247164
-0.057644784 -0.33203298 0.07613562 -0.02404167 -0.03332704 0.052309055 0.10492095 -0.12187317

layer_stack.3.weight f4 [128, 64, 4, 4]
00000000: 11ce a03c 3964 993d 666d 6e3c a256 883c
00000010: b4f1 ee3d 9662 0f3e a98a 943c d145 503c
00000020: 812f 3f3b 4d8a 36bd 124b 18be 8b3d 8dbd
00000030: 16a7 67bc ef9f ea3c 6223 e7ba 3715 dabd
00000040: eafc 323d 3cb5 603c 54b4 003e aa11 353e
00000050: 9524 033d d632 6dbd 7e3c 20be 6c47 aebd
00000060: fc24 cd3c d145 b53b 538e 82be 3256 71bd
00000070: a3f2 ecbc f51f ef3b 346f e83d eb32 fdbc
00000080: 9041 60be 86c4 463e c616 d23e f33f 3ebe
00000090: 5164 1f3d b55f 5c3d 8480 a3be 8c3e c33d
000000a0: 4333 c43d 27d4 e6bd 77f8 03bc 19db 743c
000000b0: 0952 923d 3390 cfbd a10b f03d 24f1 b23d
000000c0: a476 02be b53c 073e 9c6b 4ebe e6db bdbd
000000d0: 235e b1be 46e2 a3be 1c37 d3bd f5b6 61bb
000000e0: 12e3 c4bc a391 07be e11f 073e 687a 463d
000000f0: baaf 1b3e c966 9a3c a621 f33d 7f2c 5e3e
00000100: 4cb2 d83d 307b fb3d 1b8b 1f3e e556 89bc
00000110: 8599 f23d a502 d63d 9262 ccbd 8ece 5b3e
00000120: 9f73 313c 815c 0abe 8380 bdbd c267 483c
00000130: bde9 33bd b0f0 26be 6f66 94bc 5132 393d
00000140: 7f05 bc3d cb7c 35be 8a34 c7bd 7208 e13d
00000150: 2774 e53c c1c1 c23d 94cd abbe 0ecf 953d
00000160: b7d2 46bc 6552 1c3e 1683 ce3c c627 6f3d
00000170: b7c2 b03d c459 043d 2be4 ce3d e0b2 80bd
00000180: 5465 d53d 031f 233e 89fd 43be 169e 073e
00000190: a0f2 94bd 59b1 ccbe ec38 05bf a0a9 bebd
000001a0: 3f2b 383d b9ed a0be 13fc 86be 7736 5dbd
000001b0: 8ba1 2ebc dd8e 5e3d 6906 bf3d f9ae ae3d
000001c0: 0220 663d ebeb b33d 430f 1a3e 55a8 f13b
000001d0: eab9 5bbe bac0 69be 6f7c 7dbe 3004 78bd
000001e0: 97f1 eabb 4931 adbd 67f6 d13d 019e 0dbe
000001f0: ddb0 5e3d da97 c03d a6b9 ba3d d8e1 c73d
00000200: bf44 81bd c250 f63b 78f5 183e dbf3 c5bd
00000210: e4e5 3cbb 9033 76be d49b aabd c47d a03d
00000220: dd1e 883c c243 d4bc c8e4 ccbd 34f9 cd3d
00000230: 8ad1 893d 0773 b93d ef8c 1e3d c698 203d
00000240: e5e3 d5bc 9495 d63d c943 babe af8d 95be
00000250: 23d1 7f3d d46a 03be 47aa c5bd 5b4c ef3d
00000260: 2d00 a03d f891 623c d478 a3ba c36e 893d
00000270: 2e1d 83bd 3fb2 a73c 65e7 1f3d 5f42 483d
00000280: 0752 54bd a25d 123b 6d6f 2fbe 3fdb 933c
00000290: faf8 db3c f027 a43d fe3a 8bbe 75e4 8ebc
000002a0: 6d90 063e 055e 74bd 3a75 953d 36f3 923d
000002b0: 83be 2b3d 6a87 783d 8f79 673c aa81 903c
000002c0: b02e 95bc 3293 1c3c d320 be3d ae7f 593e
000002d0: cb86 8dbd 4233 16be f177 08be 5665 98bd
000002e0: 1806 723d 229c a4bc eb9d 923c 219e c73c
000002f0: 3153 5c3c 8602 203d c582 dd3c af5d fb3c
00000300: 2ab3 0b3e 9e26 1a3e 8842 763d 9289 143e
00000310: 4d67 6cbe f1b2 e6bd 400c 55be fa56 3b3d
00000320: cc37 9fbd f473 bcbe 3153 6cbc edd5 09be
00000330: fb9a b73c dbaa 9ebd 5ea5 52bd fce2 b13b
00000340: 8c57 4f3d e90d 2b3e e1b1 f63d e2de 7a3d
00000350: c9c9 b53d 5ccb 11be a80a 56bc 0ad8 c33c
00000360: 9cdf 0cbd e16f 85be 174f 67be c2ce 87bd
00000370: dbec f7bc 1fbf 8bbd 132b 0b3e c2bc ed3d
00000380: 1db0 663d 31ae 323e 83ca 27be c084 7bbd
00000390: a62f 0b3e 4c7b ee3d ae50 60be 4a73 0bbd
000003a0: 2dad 843c eb6f 58bd dfe7 b3bd 5a80 3e3d
000003b0: 184c cf3b 1f9d 97bd 520c bcbc 7007 373d
000003c0: dd8e ee3c 7504 573e 3dae ab3d 0e9a 803d
000003d0: 40c1 cbbc b079 f9be 9674 3ebf 4c04 c5bd
000003e0: 4d03 af3c 5dcb f6bc a7b2 b23c a150 26bd
000003f0: db85 2d3d f680 253d 3097 223e 6297 373b
0.01962951 0.07489819 0.01455245 0.016642872 0.11667195 0.14002451 0.018132525 0.012711958
0.0029172602 -0.044565488 -0.14872387 -0.06896504 -0.0141389575 0.028640715 -0.0017634446 -0.10648578
0.04369823 0.013715085 0.1256879 0.1768252 0.03201731 -0.05790981 -0.15648076 -0.085097164
0.02504205 0.0055320044 -0.2549921 -0.058920093 -0.028924292 0.0072975107 0.11349335 -0.030908069
-0.2190001 0.19410905 0.41033 -0.18579082 0.03891403 0.05380221 -0.31933987 0.09533414
0.0958009 -0.112709336 -0.008054844 0.014944815 0.07144553 -0.10134926 0.11720968 0.087374
-0.1274057 0.13206752 -0.20158237 -0.09270458 -0.34642133 -0.3200857 -0.10313246 -0.0034441326
-0.024034057 -0.1323915 0.13195755 0.04845658 0.15203753 0.01884784 0.11871652 0.21696661
0.105808824 0.122793555 0.15580408 -0.016765067 0.11845688 0.10449723 -0.09979738 0.21465513
0.010830789 -0.1351185 -0.09253027 0.012231769 -0.043924082 -0.16302752 -0.01811525 0.045214
0.09180736 -0.17723386 -0.09726818 0.10987939 0.028009487 0.09509612 -0.3355528 0.07314883
-0.012135199 0.15265806 0.025208991 0.05838754 0.08630889 0.03231217 0.10102113 -0.06284118
0.104197174 0.15929799 -0.19139685 0.13243899 -0.072728395 -0.39979056 -0.5203998 -0.09309697
0.044963118 -0.31431368 -0.26364192 -0.05400702 -0.010658632 0.054335464 0.093273945 0.08529467
0.05618287 0.08785232 0.15044884 0.007374803 -0.2145764 -0.22827426 -0.24754499 -0.06055087
-0.007169913 -0.08456666 0.10252076 -0.13829805 0.05436789 0.094039634 0.09117441 0.09759873
-0.063119404 0.0075169513 0.14937389 -0.09665652 -0.002882355 -0.24043107 -0.08330503 0.07836488
0.01661628 -0.025911216 -0.10004574 0.10057297 0.067294195 0.09055143 0.038708623 0.039208196
-0.026109645 0.104777485 -0.3637984 -0.29209659 0.062455308 -0.1283372 -0.096516185 0.116844855
0.078125335 0.013828747 -0.0012471923 0.06710579 -0.0640205 0.020470737 0.039039034 0.04889142
-0.05183604 0.0022333642 -0.1713235 0.01804888 0.02685212 0.0801543 -0.27193445 -0.017442921
0.13141032 -0.059659977 0.0729775 0.07175295 0.041929733 0.060676016 0.014128103 0.017639954
-0.018210739 0.0095565785 0.092836045 0.21240112 -0.06910475 -0.14667991 -0.13327004 -0.07441203
0.059087843 -0.020093981 0.017897567 0.024367394 0.013447569 0.039064907 0.027039895 0.03068432
0.13642564 0.15053794 0.060122043 0.14505604 -0.23086281 -0.11264599 -0.20805454 0.045737244
-0.07774314 -0.36807215 -0.014424131 -0.13460512 0.022412768 -0.07747432 -0.051427238 0.00542867
0.0506206 0.16704525 0.120456465 0.061247714 0.08876378 -0.14237732 -0.013064064 0.023906726
-0.034392938 -0.2606192 -0.22588764 -0.06631233 -0.030264309 -0.06823563 0.1359065 0.11608268
0.0563203 0.17449261 -0.16385846 -0.061405897 0.13592395 0.11644611 -0.21905777 -0.034045495
0.016195858 -0.05284111 -0.0878446 0.046509124 0.0063262098 -0.07403015 -0.022955094 0.044684827
0.029120857 0.20997794 0.08382843 0.062793836 -0.024872422 -0.48725653 -0.74396646 -0.0961996
0.021363879 -0.030126268 0.021813704 -0.040604237 0.042363983 0.04040619 0.15877986 0.0028013815

layer_stack.7.weight f4 [1, 6272]
00000000: 1dad 313e dca7 82be 5fcf bdbc 772d ce3d
00000010: 9cde b63e 4e54 f43d c1f7 cebc 697a ffbe
00000020: a4f2 22bc aed2 0b3d 0741 e43d adb4 043e
00000030: 41f4 123e 6bef 1ebe da6c 0abf babf e5bb
00000040: 5d40 973d 32f0 423e 2056 483e 4d77 183e
00000050: a5e0 d2bd 1ed7 e6be 66f5 9cbc 8671 e43d
00000060: cc9c 2e3e 65ac 6b3e 3213 633e 4d09 31bd
00000070: b6b1 bfbe 0335 03bd a4d8 c93d 1794 553e
00000080: c462 993e e9d6 7e3e f201 523d e51f a2be
00000090: f020 813c 860f 0c3e 1209 2d3e 62bf 693e
000000a0: d40b 653e e18d 61be 1228 f9bd e0e9 8e3c
000000b0: 6772 a03d dc0c 983d d33b 993d 1d0f f0bc
000000c0: 6eef b8be b78a 9abd 5d00 57bc 570c 093e
000000d0: 05d2 14bb 8ebb ce3d 66e6 aa3d 3e2d 853d
000000e0: 4b78 303e edd8 853e 1683 613e f13b 09be
000000f0: fd7b bb3c 7a86 78bd 8d4f c13d e07f 163e
00000100: 25ec 8f3e f8bd 5e3c e2bf 21be 9ae1 5fbe
00000110: 14eb 8d3d ea48 c1ba ee0c ee3d bda0 393e
00000120: f60a d4bd b8c2 b9bd 9551 15be 2695 233d
00000130: 01ed ae3d d4a7 df3d 8b41 643e c343 44bc
00000140: d599 37be 1539 393c 6b91 acbd 9da8 16bd
00000150: 9bfc 9f3d ccb1 ca3d cb17 323e 0315 a6bc
00000160: 429c c5bd 65da 76be db5a 4cbd 500a b5bc
00000170: d45b f73d 659c e93d 9c2f d63c e05e afbe
00000180: 8fd1 6abd e189 0b3d bb95 e33d e3fa e3bc
00000190: a2c6 85be 78a9 4ebe 3eaf 173b 6405 e1bc
000001a0: 6df1 52bd a038 f4bd aae0 363d ecdd 903e
000001b0: af53 0f3f f628 9d3e 440e 5d3e 4f76 7c3e
000001c0: 8355 70be 29f3 1b3d a0c3 113d 30a9 02be
000001d0: 07d8 dfbc 78d8 003e e885 923e 7c59 bfbd
000001e0: 42ea 03bd 87ed 02be 0d66 c3bd ffa7 6d3d
000001f0: c01d 023e 1a59 623e 0e39 4bbd bc87 d7bd
00000200: 41f9 c0bd 643d 893d 254e 4f3d 5a99 f13d
00000210: 9142 d63d c38c 2dbd 8104 babd 4043 fabd
00000220: 203e a3bd 1be6 e53c 3b9d 03bd c986 ac3c
00000230: 1cf2 e03c 1806 783d 62c3 b93b 1279 c23c
00000240: 2f73 383c 8a48 36bd a819 e1bd dd01 d7bd
00000250: 1246 9d3c 9675 373d f220 a43e 1ea0 f93e
00000260: b167 9f3d 6c1a d5bd 34b4 ecbd 0efe 1b3e
00000270: 831c 11bd 6a15 9f3b 1b64 e33d 6a5a 43bd
00000280: eca4 aa3d 7b24 463e 858e 2dbd 0105 a83a
00000290: db57 67be 8d20 203d b810 893c 5032 01be
000002a0: 2555 b13d bde8 fd3c a91b f43c 4d6e d43d
000002b0: 1bfd 62bd 0cca 493d 2851 253d e40c 87bd
000002c0: 3744 b33d 1660 27ba b169 33bc d19e 4dbd
000002d0: 387a 633d c7a4 573c 08a8 4f3d 585e 923c
000002e0: d03d c33c d1fa 023e ce88 7d3d 2a16 493d
000002f0: 6b64 05be 79bc 243e ed7f c13d b5a1 c6bc
00000300: f90a cebe 74da efbe e301 10bf 56ba 743e
00000310: e637 00be 2e82 c4bd 8b13 7abd 1d6b 84bd
00000320: 103d 213e c04e c93c f772 a9bd 237c 25bd
00000330: f60f 45bd cc32 eabd c3ad 9dbd 09dd 353e
00000340: fa6c 743c 040c 153d 130b a73c b022 113c
00000350: 0697 1fbe bfab 32bd 51c9 20bd 76a4 4e3e
00000360: 39dc 913d ac05 003d 8ded 9d3c 9b61 a33d
00000370: 4feb efbd 1587 ffbd e594 913e 53e2 59bd
00000380: 0f43 5ebc 5a89 203a 9ff2 0b3e a5fb c9be
00000390: 976a df3d 3c74 123d 073d 98bd 5a22 50be
000003a0: c17f 483e 3fce 013b 937d 90bd 929c 3f3d
000003b0: 4b16 b7bd de02 143e 2e30 0ebe 19f3 ad3d
000003c0: c7e0 f3bb ebc8 e03c a037 863b 419b 9b3d
000003d0: bba2 08be 3391 483e 185f 853e c845 0c3d
000003e0: 9907 c5bd c8f3 4abe 264b 14be 556f 4a3e
000003f0: d3f9 333e 5b55 f2bc 2659 9bbd 8dfd 753d
0.17351194 -0.25518692 -0.023170171 0.100672655 0.35716712 0.11930142 -0.025264623 -0.4989808
-0.009945545 0.034136467 0.111452155 0.12959547 0.14350988 -0.15521018 -0.54072344 -0.007011381
0.07385323 0.1903694 0.19564104 0.1488926 -0.10296754 -0.45085996 -0.019159984 0.111544654
0.17052001 0.23014982 0.22175291 -0.04322176 -0.3744027 -0.032032978 0.09855774 0.20857273
0.29958165 0.24886669 0.051271386 -0.3166496 0.015762776 0.13677797 0.16897991 0.22826913
0.22367793 -0.22026779 -0.12165846 0.017445505 0.078343205 0.07424328 0.07482114 -0.029304082
-0.3612017 -0.07545989 -0.013122645 0.13383614 -0.002270819 0.10094367 0.08344726 0.0650277
0.17233388 0.26142064 0.22022662 -0.13401772 0.02288627 -0.06067512 0.09439001 0.14697218
0.2810985 0.013595097 -0.15795854 -0.21863404 0.06929603 -0.0014746462 0.1162356 0.18127723
-0.10353653 -0.09070343 -0.14581902 0.03993716 0.08541299 0.109206825 0.22290628 -0.011979046
-0.17929776 0.011305113 -0.08426174 -0.036781896 0.078118525 0.09897193 0.17391889 -0.020273691
-0.096489444 -0.24106748 -0.049891334 -0.022099644 0.12078062 0.11406783 0.026145749 -0.3425207
-0.057328757 0.03406704 0.11112543 -0.027829593 -0.26128107 -0.20181835 0.0023145224 -0.02746839
-0.051499773 -0.11924863 0.04464785 0.28294313 0.55987066 0.30695313 0.21587473 0.24654506
-0.2347012 0.038073692 0.035586953 -0.12759852 -0.02732469 0.12582576 0.28617787 -0.0934324
-0.032205828 -0.12785922 -0.09540949 0.05802154 0.12706661 0.22104302 -0.04961496 -0.10523936
-0.094225414 0.067011625 0.050611634 0.117968276 0.10461915 -0.04237057 -0.0908289 -0.12219858
-0.07970834 0.028063824 -0.03213237 0.021060364 0.027459197 0.060552686 0.0056690434 0.023739371
0.011257931 -0.044502772 -0.10991222 -0.10498402 0.019198451 0.044789873 0.32056385 0.48754972
0.077834494 -0.1040543 -0.115578085 0.15233633 -0.03542758 0.0048548477 0.11103078 -0.047693647
0.083322376 0.19349854 -0.042372245 0.0012818874 -0.22592108 0.039093543 0.016731605 -0.12616849
0.08658818 0.030994767 0.029798346 0.10372601 -0.05541716 0.049264953 0.0403606 -0.065942556
0.08753245 -0.00063848624 -0.010950492 -0.050200287 0.05553648 0.013161845 0.050697356 0.017867252
0.023833185 0.12790991 0.061898045 0.049093403 -0.13026588 0.16087522 0.09448228 -0.02424703
-0.40242746 -0.46846354 -0.5625288 0.23899207 -0.12521324 -0.09595142 -0.061053794 -0.06465743
0.1574595 0.024573684 -0.08273881 -0.04040159 -0.048110925 -0.1143547 -0.07699158 0.177601
0.01491856 0.036388412 0.020391023 0.008858368 -0.15584955 -0.04362082 -0.03925449 0.20179924
0.07122082 0.03125541 0.019278312 0.07977601 -0.117148034 -0.12476937 0.2843391 -0.053194355
-0.013565793 0.00061239826 0.13666771 -0.39449802 0.10909002 0.03575538 -0.07433515 -0.20325604
0.19579984 0.001980677 -0.070552014 0.046780176 -0.08939799 0.14454219 -0.13885567 0.08493633
-0.007442567 0.027439555 0.0040959865 0.07597972 -0.13343327 0.19586639 0.26049113 0.034246236
-0.0962059 -0.19819558 -0.14481792 0.19769032 0.17575769 -0.029581716 -0.07585363 0.060056258
