models/discriminator.pth (torch, 556807 bytes, 5 tensors)

layer_stack.0.weight f4 [64, 1, 4, 4]
-0.22286946 -0.097856335 -0.00518363 -0.090123795 0.101387285 0.07520425 -0.13210578 -0.114403926
-0.0006252136 -0.1022656 0.20587924 -0.13712177 0.19622958 0.09345578 -0.031584576 0.09218438
0.039011322 0.100874625 -0.0002800813 -0.17879155 0.08426005 -0.13323413 0.014452221 0.09475164
0.039213065 0.0066983164 -0.026061326 0.22316785 0.00011470977 0.27142578 -0.3700184 -0.20288323
-0.06742928 0.29269555 -0.5259936 0.3976452 -0.078166366 -0.044450786 0.27634585 -0.42593634
0.0681468 -0.049924918 -0.080431685 0.19652446 0.01940967 -0.013764796 0.034135237 -0.069471456
0.035491362 -0.018091442 -0.010655921 0.036514048 -0.058323342 0.1469026 0.14073873 -0.051832832
0.034325548 -0.09599119 -0.17846553 0.04876383 -0.019545486 -0.1214184 -0.32094756 -0.02188537
-0.12231142 0.21662973 0.06592965 -0.10127713 0.17926034 -0.06956697 -0.45057523 0.19833931
-0.026079005 -0.28112063 0.37842572 -0.038790636 0.015360448 0.06795582 0.0078504095 -0.027836869
-0.013105576 -0.0008838703 0.021033157 0.0015574571 0.6219167 0.013964198 -0.037504446 -0.018065456
-0.6213288 0.0033474115 0.050320413 0.001903797 0.00237434 0.10082793 -0.010016158 -0.0057971356
0.5076119 -0.7557169 0.53089637 -0.03891048 -0.09613558 0.13571015 -0.07564442 0.003448297
-0.0016629029 0.05254117 -0.016822537 -0.008225867 -0.0068972446 0.019713026 -0.01590393 0.0069131115
0.0126394555 -0.19947371 -0.15852809 -0.03596952 0.0046662106 0.26298633 0.31173128 0.2511522
0.07862785 0.05958384 -0.116135985 -0.18760513 -0.073336035 -0.29109663 -0.034419533 -0.017161323
0.0137920175 -0.04694172 0.065401874 -0.061077155 0.09664707 -0.012224617 -0.293814 0.5000114
-0.3149581 0.3056217 -0.28779155 -0.31471533 0.0829168 0.08826539 -0.07685323 0.079306155
-0.011001566 -0.050301332 0.16931657 -0.19588858 0.14705598 -0.4026592 0.54257053 -0.19517921
0.0500949 -0.099171884 -0.05351674 -0.004058854 0.010548668 -0.0736858 0.15840216 -0.04332829
0.06695238 0.037159115 -0.18077181 0.07987749 -0.075276524 0.2697815 -0.1614777 -0.09902589
-0.18196186 0.4737457 -0.15499912 -0.06169977 -0.17547266 -0.1339307 0.37264788 -0.13452186
0.028277382 0.13616948 0.07914629 0.1594582 0.16129291 -0.12496693 0.08888602 -0.22551769
-0.029602222 0.10922343 -0.25968486 -0.08459927 -0.09430869 -0.13960549 0.14762539 -0.048038483
-0.046015386 0.086549394 -0.104324825 0.039184894 -0.12612571 -0.33875677 0.37772763 -0.1293251
0.44075167 0.026428739 -0.23987855 0.1113888 -0.2750356 0.09632985 0.00961359 -0.035895947
0.124573305 -0.22561541 -0.050376672 0.13762464 -0.1489284 0.57807714 -0.33515713 -0.031709008
-0.09510318 -0.25784525 0.39747298 -0.06974634 0.16480102 -0.18729539 -0.020836245 0.013054139
-0.04601971 -0.16976997 -0.15023224 -0.15775016 -0.14770037 0.0018531473 0.1478981 0.06583281
0.06942977 0.1693885 -0.000319242 0.090271436 0.12585236 -0.0016174165 0.0013766174 0.0065368325
0.049747795 0.049906347 0.21546985 -0.115093045 -0.36146793 -0.11890345 -0.15169959 -0.08084965
0.264466 0.32330236 -0.05494446 0.07406748 0.07888155 -0.2536895 -0.13203661 0.13191608
00000000: e437 64be e768 c8bd 71db a9bb d392 b8bd
00000010: 23a4 cf3d b004 9a3d bd46 07be 9b4c eabd
00000020: 60e5 23ba a070 d1bd 02d2 523e a669 0cbe
00000030: 68f0 483e be65 bf3d d45e 01bd 2acb bc3d
00000040: 56ca 1f3d 5b97 ce3d e0d7 92b9 2215 37be
00000050: 8890 ac3d 876e 08be 02c9 6c3c 260d c23d
00000060: e19d 203d 8d7d db3b 907e d5bc 1d86 643e
00000070: 5790 f038 52f8 8a3e 0d73 bdbe 9fc0 4fbe
00000080: 5d18 8abd 31dc 953e 84a7 06bf 2798 cb3e
00000090: b015 a0bd 0712 36bd 347d 8d3e 5414 dabe
000000a0: 8d90 8b3d 127e 4cbd 5eb9 a4bd b53d 493e
000000b0: 0701 9f3c bd85 61bc 64d1 0b3d 0d47 8ebd
000000c0: 645f 113d 8134 94bc 2c96 2ebc c18f 153d
000000d0: 75e4 6ebd a36d 163e d01d 103e aa4e 54bd
000000e0: f298 0c3d 0797 c4bd abbf 36be 95bc 473d
000000f0: db1d a0bc 36aa f8bd 3d53 a4be f348 b3bc
00000100: 697e fabd 2fd4 5d3e 2006 873d 626a cfbd
00000110: 0690 373e 2179 8ebd ccb1 e6be 7619 4b3e
00000120: a3a3 d5bc 0bef 8fbe 04c1 c13e eee2 1ebd
00000130: 63aa 7b3c 6c2c 8b3d 019f 003c 250a e4bc
00000140: c5b8 56bc 88b3 67ba ba4d ac3c 9723 cc3a
00000150: ef35 1f3f 17ca 643c 439e 19bd 02fe 93bc
00000160: 670f 1fbf 3f60 5b3b c71c 4e3d d488 f93a
00000170: d19a 1b3b e07e ce3d d01a 24bc e6f5 bdbb
00000180: daf2 013f aa76 41bf d3e8 073f 9860 1fbd
00000190: bbe2 c4bd 9af7 0a3e 76eb 9abd d3fc 613b
000001a0: c3f5 d9ba 6935 573d 6bcf 89bc c9c5 06bc
000001b0: 4802 e2bb 367d a13c f548 82bc 6287 e23b
000001c0: b815 4f3c d642 4cbe 3055 22be c754 13bd
000001d0: 03e7 983b 25a6 863e 3e9b 9f3e 0597 803e
000001e0: a307 a13d 2f0e 743d b4d8 edbd 8f1b 40be
000001f0: 3431 96bd 9e0a 95be 7ffb 0cbd e795 8cbc
00000200: eaf7 613c f645 40bd 6bf1 853d 0a2c 7abd
00000210: e6ee c53d c349 48bc ca6e 96be bf00 003f
00000220: 3042 a1be 737a 9c3e 6a59 93be 5e22 a1be
00000230: 49d0 a93d 7cc4 b43d 3a65 9dbd 446b a23d
00000240: ea3f 34bc c508 4ebd 5361 2d3e 0497 48be
00000250: d895 163e 5929 cebe e7e5 0a3f 0fdd 47be
00000260: 4f30 4d3d a11a cbbd 5f34 5bbd 2300 85bb
00000270: 52d4 2c3c 95e8 96bd 2d34 223e 0179 31bd
00000280: 541e 893d 2834 183d 3f1c 39be cf96 a33d
00000290: 942a 9abd cd20 8a3e 695a 25be 16ce cabd
000002a0: 3654 3abe cc8e f23e 17b8 1ebe e6b8 7cbd
000002b0: 1baf 33be 2125 09be b4cb be3e 19c0 09be
000002c0: f8a5 e73c 0370 0b3e 7317 a23d 0349 233e
000002d0: f829 253e a9ee ffbd e009 b63d 1cee 66be
000002e0: 5c80 f2bc 89b0 df3d 6af5 84be 6242 adbd
000002f0: ea24 c1bd bef4 0ebe 1c2b 173e 00c4 44bd
00000300: a17a 3cbd cf40 b13d 41a8 d5bd 5780 203d
00000310: 1927 01be 8771 adbe 8465 c13e cd6d 04be
00000320: 34aa e13e 1581 d83c b9a2 75be d01f e43d
00000330: 77d1 8cbe 9648 c53d 5282 1d3c a107 13bd
00000340: 4a20 ff3d ba07 67be c557 4ebd 79ed 0c3e
00000350: b080 18be ddfc 133f b799 abbe 4ee1 01bd
00000360: 75c5 c2bd 4b04 84be 9481 cb3e 2bd7 8ebd
00000370: 99c1 283e 5dca 3fbe c6b0 aabc 07e1 553c
00000380: 2a7f 3cbd 2ed8 2dbe 7bd6 19be 4289 21be
00000390: c43e 17be 4ee5 f23a 9972 173e 5ad3 863d
000003a0: 3231 8e3d 2e74 2d3e f05f a7b9 3be0 b83d
000003b0: 71df 003e 7eff d3ba 9d6f b43a ed32 d63b
000003c0: 58c4 4b3d 996a 4c3d 21a4 5c3e e7b5 ebbd
000003d0: 5312 b9be a783 f3bd 2357 1bbe 8094 a5bd
000003e0: 1668 873e e387 a53e 710d 61bd b1b0 973d
000003f0: a68c a13d 97e3 81be 9b34 07be 0215 073e

layer_stack.0.bias f4 [64]
-0.18217258 -0.13856013 -0.14884807 -0.41331685 -0.05273065 -0.042872038 -0.18757682 -0.15804633
-0.19598256 -0.11832297 -0.1472754 -0.102068655 -0.1256524 -0.0988691 -0.0012024778 -0.12529925
0.003931835 -0.010977745 -0.3207885 -0.29272878 -0.06515375 -0.026799263 -0.2996342 -0.36070424
-0.029295048 -0.30459157 -0.4438256 -0.1899015 -0.15615447 -0.27369475 -0.3533261 -0.098172344
-0.18627486 -0.0649023 -0.22762217 -0.12307306 -0.042467035 -0.31763285 -0.06471265 -0.3279224
-0.12097772 -0.0021352603 -0.02986687 -0.42459464 -0.13337925 0.0048523326 -0.47652167 -0.18092304
-0.16065727 -0.41284883 -0.23178394 -0.07208355 -0.113520905 -0.49138024 -0.020837154 -0.030106204
-0.24110903 -0.4481436 -0.031116981 -0.4315371 -0.18148394 0.065574095 -0.024906868 -0.13592434
00000000: 738b 3abe b5e2 0dbe a16b 18be 449e d3be
00000010: 18fc 57bd 979a 2fbd 2314 40be e6d6 21be
00000020: a7af 48be 5053 f2bd 5dcf 16be 5f09 d1bd
00000030: 06ab 00be e27b cabd 769c 9dba 724e 00be
00000040: 9fd6 803b 00dc 33bc 643e a4be 8ce0 95be
00000050: 546f 85bd 218a dbbc a769 99be 3aae b8be
00000060: 2bfc efbc 6df3 9bbe 1c3d e3be 8a75 42be
00000070: f5e6 1fbe b821 8cbe 29e7 b4be 950e c9bd
00000080: d6be 3ebe 7feb 84bd c915 69be ba0d fcbd
00000090: eaf1 2dbd c6a0 a2be 1188 84bd 72e5 a7be
000000a0: 2bc3 f7bd b9ef 0bbb 5eab f4bc 7864 d9be
000000b0: 9294 08be 5100 9f3b a6fa f3be e443 39be
000000c0: 5783 24be ec60 d3be c558 6dbe 8aa0 93bd
000000d0: a67d e8bd 3196 fbbe aeb2 aabc 49a1 f6bc
000000e0: 49e5 76be 1473 e5be 0ae9 febc 6ef2 dcbe
000000f0: edd6 39be b64b 863d 7d09 ccbc c02f 0bbe

layer_stack.3.weight f4 [128, 64, 4, 4]
-0.05134 0.02046701 -0.04562197 0.004667532 -0.08952343 -0.15487498 0.08371444 0.024734972
0.12972751 -0.15304871 0.004363201 -0.05466425 0.013219241 0.03201762 -0.0854789 -0.1716472
-0.09608237 0.081697725 0.06722964 -0.001258534 -0.10277459 0.019579276 0.058022935 0.06451267
0.04470641 -0.12636453 0.0045114458 0.03681806 0.02890561 -0.031144977 -0.09625713 -0.017178422
0.14314766 -0.041467197 -0.09751031 0.1896832 -0.114594206 -0.005843673 -0.11190413 -0.17502472
-0.27792996 -0.19140193 0.08391018 -0.094445385 0.12936008 0.026001165 0.108237915 0.074923344
-0.0005301953 0.2611391 0.14824265 0.07497501 0.3125907 0.4959783 0.024645561 -0.19004193
0.35653615 0.21802843 -0.045720052 -0.17133275 0.04274862 0.13924874 -0.0059660114 -0.101625934
0.048866928 -0.097013466 0.08448502 -0.0441628 -0.1440527 -0.09179425 0.00050082797 0.014001924
-0.18247487 0.17512271 -0.17067046 -0.15422499 0.028898692 -0.04185651 -0.10793141 0.095978856
-0.056712966 -0.14689352 0.070752054 0.10904049 -0.024895435 -0.025029328 -0.092686355 0.12511069
0.12859696 -0.050269514 0.026104014 0.020170463 0.117435984 0.1788448 0.0864005 -0.12743159
0.040025905 0.049915936 0.2537095 0.24325088 0.063351385 -0.07726711 0.20433553 0.12614176
0.01021459 -0.4832622 -0.26267758 0.07177895 -0.17854656 -0.37527156 -0.30678287 0.35098886
0.029303124 -0.118535474 0.06979003 0.11361036 -0.005402717 0.07929608 0.16561617 -0.1295205
-0.062475394 -0.013849429 0.018495193 -0.058196783 -0.25443944 0.10041841 -0.07448644 -0.08655718
0.16082126 0.0910496 -0.18044867 -0.2659193 -0.040656194 -0.084558696 0.028212143 0.054419596
0.07445271 0.075557105 0.026603848 -0.010072842 0.22806033 -0.0061890166 -0.13644092 0.0020300595
0.11100858 -0.030899437 -0.069310226 -0.01598774 -0.21189457 -0.1652332 0.122342736 0.025365004
-0.26400346 -0.40325382 0.027891474 0.054628998 -0.17719567 0.07099577 -0.16099532 0.14929862
-0.046281327 -0.06853232 -0.10705617 -0.083617434 -0.38560688 -0.24180987 0.04260951 -0.019407494
0.034681346 -0.051176358 0.09464512 0.053360503 0.25910282 0.07219039 -0.12610477 0.09504541
-0.04932661 -0.1128542 -0.013028673 0.03538984 0.012438383 0.03568331 -0.048460234 -0.0729414
0.057026006 0.11446748 0.021233378 -0.056998182 -0.18993798 0.0185046 0.1074591 -0.030111186
-0.121468015 -0.18699364 0.19910704 0.20736098 -0.12023341 -0.23203218 -0.075420894 0.015411002
-0.070983045 -0.30770394 -0.31655204 -0.0122306235 0.22236545 0.19751792 -0.24594362 -0.23240729
-0.0744948 -0.1635099 -0.1117298 0.07389387 -0.41121128 -0.43473542 0.1504124 0.06773272
-0.37259784 -0.40102306 0.101848744 0.22949195 0.09606453 0.054055322 -0.20570995 0.09321969
-0.02752401 -0.029173112 0.048369 0.03528103 0.021801883 0.029181473 0.024226725 -0.014316103
-0.15145093 0.035968654 0.0119561 -0.03266478 -0.046694536 0.13420695 -0.08291808 -0.19707626
-0.17890285 -0.038953118 0.15639511 0.13419951 -0.25995278 0.017268889 0.063395776 0.021008847
-0.23200819 -0.15477484 0.033498887 0.023592412 -0.076247595 -0.043483973 0.027891612 0.07024353
00000000: e449 52bd 6eaa a73c 1ade 3abd 19f2 983b
00000010: 0f58 b7bd 8c97 1ebe 7a72 ab3d ffa0 ca3c
00000020: 4ad7 043e cdb8 1cbe 2ff9 8e3b 9fe7 5fbd
00000030: 8495 583c e824 033d 900f afbd 49c4 2fbe
00000040: d5c6 c4bd 2351 a73d b2af 893d 65f5 a4ba
00000050: 7c7b d2bd b864 a03c 75a9 6d3d 381f 843d
00000060: 121e 373d b465 01be c0d4 933b 89ce 163d
00000070: 75cb ec3c c023 ffbc 7522 c5bd c3b9 8cbc
00000080: 4d95 123e 82d9 29bd 7cb3 c7bd 503c 423e
00000090: 5eb0 eabd 487c bfbb fe2d e5bd ae39 33be
000000a0: d64c 8ebe defe 43be 1ad9 ab3d 956c c1bd
000000b0: f876 043e 6500 d53c d7ab dd3d 6971 993d
000000c0: cefc 0aba 06b4 853e eccc 173e 7f8c 993d
000000d0: e30b a03e def0 fd3e 7de5 c93c 5a9a 42be
000000e0: e88b b63e d842 5f3e f344 3bbd da71 2fbe
000000f0: 2d19 2f3d 3997 0e3e 887e c3bb 4221 d0bd
00000100: b028 483d ffae c6bd 7b06 ad3d 0de4 34bd
00000110: 8d82 13be a0fe bbbd ff49 033a 5368 653c
00000120: b1da 3abe 5e53 333e 3dc4 2ebe 28ed 1dbe
00000130: f3bc ec3c bb71 2bbd 250b ddbd 9090 c43d
00000140: db4b 68bd 416b 16be 74e6 903d 9f50 df3d
00000150: 83f1 cbbc 4e0a cdbc 58d2 bdbd 041d 003e
00000160: ecae 033e 68e7 4dbd 16d8 d53c 873c a53c
00000170: 4782 f03d 1723 373e bff2 b03d 6d7d 02be
00000180: 34f2 233d a774 4c3d 36e6 813e c216 793e
00000190: 5fbe 813d 383e 9ebd 553d 513e 4e2b 013e
000001a0: 185b 273c 256e f7be ad7d 86be d800 933d
000001b0: e9d4 36be 9823 c0be a512 9dbe d0b4 b33e
000001c0: 1b0d f03c bac2 f2bd 13ee 8e3d 8cac e83d
000001d0: 4609 b1bb fc65 a23d 4997 293e 06a1 04be
000001e0: 33e6 7fbd b7e8 62bc 3b83 973c c05f 6ebd
000001f0: e345 82be 2ba8 cd3d 598c 98bd e444 b1bd
00000200: 54ae 243e 3678 ba3d 89c7 38be 9326 88be
00000210: 1c87 26bd 1c2d adbd 271d e73c 15e7 5e3d
00000220: aa7a 983d afbd 9a3d 50f0 d93c 9008 25bc
00000230: a688 693e 3ccd cabb 2bb7 0bbe bf0a 053b
00000240: 7758 e33d d120 fdbc 85f2 8dbd b9f8 82bc
00000250: e4fa 58be e432 29be d48e fa3d 45ca cf3c
00000260: 762b 87be 4977 cebe a97c e43c a8c2 5f3d
00000270: c872 35be 3b66 913d f5db 24be bde1 183e
00000280: 7d91 3dbd ac5a 8cbd 4440 dbbd 9e3f abbd
00000290: 446e c5be 029d 77be 4f87 2e3d 77fc 9ebc
000002a0: 070e 0e3d 4d9e 51bd 4dd5 c13d 8b90 5a3d
000002b0: 20a9 843e 8ed8 933d 9c21 01be 2ba7 c23d
000002c0: b30a 4abd 1a20 e7bd 3776 55bc f0f4 103d
000002d0: 5cca 4b3c aa28 123d 3d7e 46bd 4d62 95bd
000002e0: 1a94 693d ed6d ea3d 9ff1 ad3c ed76 69bd
000002f0: 1a7f 42be f596 973c 8413 dc3d bcab f6bc
00000300: 39c4 f8bd 437b 3fbe b7e2 4b3e 7056 543e
00000310: ef3c f6bd d899 6dbe 4576 9abd 6d7e 7c3c
00000320: 8f5f 91bd 5f8b 9dbe 1c13 a2be f462 48bc
00000330: c5b3 633e 2342 4a3e a5d8 7bbe 2dfc 6dbe
00000340: bb90 98bd 246f 27be 98d2 e4bd ab55 973d
00000350: 498a d2be a495 debe b505 1a3e 74b7 8a3d
00000360: 25c5 bebe e552 cdbe 1396 d03d f0ff 6a3e
00000370: 7bbd c43d 1d69 5d3d a1a5 52be f7e9 be3d
00000380: 087a e1bc 73fc eebc 931e 463d d782 103d
00000390: dd99 b23c fc0d ef3c 2077 c63c 178e 6abc
000003a0: f415 1bbe de53 133d 85e3 433c 81cb 05bd
000003b0: c542 3fbd 8c6d 093e f4d0 a9bd 5cce 49be
000003c0: 4f32 37be 4e8d 1fbd 0a26 203e 996b 093e
000003d0: 8818 85be 7c77 8d3c a5d5 813d bf1a ac3c
000003e0: 8e93 6dbe 4c7d 1ebe 2136 093d e044 c13c
000003f0: b327 9cbd 401c 32bd f37c e43c d7db 8f3d

layer_stack.3.bias f4 [128]
-0.3645827 -0.10288401 -0.22477296 -0.36075097 -0.46970984 -0.39689884 -0.2048554 -0.29367542
-0.3303442 -0.2761426 -0.2091712 -0.30624744 -0.18443933 -0.34583557 -0.3998545 -0.26436722
-0.21874453 -0.1974876 -0.20242926 -0.2014284 -0.23225279 -0.32026887 -0.2211569 -0.21440975
-0.27235574 -0.2520622 -0.085484 -0.24448545 -0.253913 -0.71468395 -0.25896978 -0.35284916
-0.18763824 -0.2195647 -0.2033794 -0.27132142 -0.06781186 -0.3017448 -0.27211297 0.02051333
-0.38192537 -0.028218852 -0.26402903 -0.13474062 -0.19227757 -0.26482087 -0.14427477 -0.4168746
-0.059881486 -0.2869949 -0.11947951 -0.21644248 -0.26650003 -0.25721872 -0.26434514 -0.24518314
-0.23048505 -0.24677034 -0.21072207 -0.23981391 -0.59691584 -0.223029 -0.17381555 -0.22385918
-0.20912446 -0.28166375 -0.32386282 -0.23698421 -0.30303168 -0.25114942 -0.3297812 -0.0048242654
-0.16807733 -0.42331985 -0.29980856 -0.13000906 -0.23788129 -0.26710966 -0.4261537 -0.5544897
-0.26134068 -0.5412499 -0.2441828 -0.051752586 -0.33447978 -0.25458843 -0.2984271 -0.0036232038
-0.21267386 -0.16000007 -0.3459902 -0.28610867 -0.25938937 -0.23178948 -0.25171936 -0.30923554
-0.14662106 -0.368078 -0.29595393 -0.2136622 -0.21282293 0.08602348 -0.38804713 -0.16000734
-0.15172559 -0.21894623 -0.055119794 -0.18377389 -0.33131352 -0.17831156 -0.24653602 -0.32333735
-0.3060237 -0.18063307 -0.277778 -0.24105182 -0.17377627 -0.2755164 -0.25993085 -0.20791179
-0.1916521 -0.50638825 -0.14432068 -0.34007433 -0.2930325 -0.38666472 -0.24104345 -0.4450075
00000000: 95aa babe dab4 d2bd e22a 66be 5ab4 b8be
00000010: cf7d f0be 5336 cbbe 9dc5 51be a05c 96be
00000020: e022 a9be 9062 8dbe fa30 56be 77cc 9cbe
00000030: aadd 3cbe 5c11 b1be bbb9 ccbe 245b 87be
00000040: 91fe 5fbe 303a 4abe 9e49 4fbe 3f43 4ebe
00000050: add3 6dbe 48fa a3be f476 62be 3b8e 5bbe
00000060: 3672 8bbe 4c0e 81be 3c12 afbd 655a 7abe
00000070: e200 82be 87f5 36bf b097 84be a5a8 b4be
00000080: 3d24 40be 92d5 60be b042 50be a4ea 8abe
00000090: f2e0 8abd 4b7e 9abe 6452 8bbe 920b a83c
000000a0: b98b c3be 392b e7bc d02e 87be 72f9 09be
000000b0: 69e4 44be 9a96 87be c4bc 13be 9670 d5be
000000c0: 4a46 75bd fff0 92be acb1 f4bd 19a3 5dbe
000000d0: b172 88be 2cb2 83be 3f58 87be 4a11 7bbe
000000e0: 4604 6cbe 5db1 7cbe 87c7 57be c791 75be
000000f0: 7acf 18bf b761 64be b4fc 31be 573b 65be
00000100: b924 56be 3b36 90be 59d1 a5be fdab 72be
00000110: f826 9bbe a896 80be 15d9 a8be df14 9ebb
00000120: 771c 2cbe 61bd d8be 8280 99be 1821 05be
00000130: 2797 73be 99c2 88be d130 dabe 09f3 0dbf
00000140: 72ce 85be 5a8f 0abf 0e0b 7abe 85fa 53bd
00000150: ef40 abbe 6a59 82be 70cb 98be 4673 6dbb
00000160: 2dc7 59be 0fd7 23be a125 b1be d67c 92be
00000170: afce 84be 395a 6dbe 5ce1 80be 1f54 9ebe
00000180: d523 16be b874 bcbe 4687 97be 44ca 5abe
00000190: 41ee 59be 142d b03d 1dae c6be f7d8 23be
000001a0: f45d 1bbe 7133 60be 4bc5 61bd 392f 3cbe
000001b0: eda1 a9be 4e97 36be f073 7cbe 798c a5be
000001c0: 23af 9cbe e0f7 38be eb38 8ebe 4ad6 76be
000001d0: 68f2 31be 7c10 8dbe a815 85be d4e6 54be
000001e0: 7340 44be a9a2 01bf cdc8 13be 391e aebe
000001f0: 5b08 96be ebf8 c5be 18d4 76be 06d8 e3be

layer_stack.7.weight f4 [1, 6272]
-0.108200364 -0.15825173 -0.02374975 0.010910858 0.0534146 -0.009655143 -0.2046619 -0.07069635
0.13448866 0.20519325 0.22225632 0.2639611 0.17324537 -0.095716156 -0.07939143 0.16455899
0.14911684 0.16326518 0.15833768 0.23528579 -0.020243125 -0.013293849 0.14432818 0.21898182
0.24306399 0.24415153 0.2666512 0.038066488 -0.0048546265 0.1651826 0.19141506 0.17187688
0.17405896 0.17165558 0.029354384 -0.08725744 0.19999215 0.17391738 0.1403909 0.09626519
0.12961012 -0.0430588 -0.07275915 0.12705071 0.08216822 0.07964381 0.070424505 -0.06024055
-0.09020111 -0.028438814 -0.12489444 0.16700223 0.09760707 0.21348427 0.18712875 -0.04634225
0.119761065 -0.1755325 0.09848152 -0.037697744 -0.038779005 -0.13292503 -0.057765692 0.08684881
-0.17605528 0.068943724 0.0131601775 0.04465276 0.1299597 -0.07215179 0.10210875 -0.018519213
-0.009439304 -0.040586732 0.31066376 0.030468343 -0.05020798 0.15817112 -0.03643991 0.008972557
0.009621149 0.18823028 0.035936683 -0.075525194 0.19284742 0.039619707 -0.0114093395 0.09081869
0.02742066 -0.0075362506 0.0016235524 0.23464209 0.04921208 -0.0034905141 0.029132126 -0.044988494
0.012137189 0.1735474 0.2548034 0.14360297 0.002169209 -0.06196606 -0.027596517 0.08949826
0.20086339 0.09744135 -0.11629369 -0.13579702 -0.17733032 -0.1354387 -0.16799667 -0.21720567
-0.031518787 -0.13649024 -0.1374875 -0.17249791 -0.1940241 -0.15598197 -0.22311686 -0.04922422
-0.1134631 -0.15411326 -0.17677775 -0.18772946 -0.14459461 -0.13522322 -0.005995985 -0.09953986
-0.14621608 -0.17891395 -0.17065871 -0.14657313 -0.17413193 -0.010500641 -0.1259976 -0.17826849
-0.19085178 -0.14910802 -0.09581439 -0.110513926 -0.009566902 -0.0626447 -0.12837474 -0.12006892
-0.092574045 0.00012091602 0.1624028 0.097539924 0.22249918 0.0506493 0.025737464 0.0984318
0.09180715 0.17838691 0.096383765 -0.005915559 -0.09447491 -0.11156908 -0.0036087797 0.0012446954
0.12869182 0.0016647826 -0.048411645 -0.122699335 -0.07988904 0.041311864 0.067929186 0.14201331
-0.025261898 -0.14903577 -0.23171188 -0.12847333 -0.0703638 -0.024722688 0.12693815 -0.24530056
-0.20095551 -0.28692698 -0.12512653 -0.021124765 0.051326312 0.15644312 -0.19302885 -0.15053862
-0.16062744 -0.16278316 -0.08719058 0.016271237 0.13111113 -0.008404469 -0.022964705 -0.10477313
-0.099845685 0.01313254 0.15659812 0.13415459 -0.25559762 -0.044914342 -0.032303993 0.051675733
0.066828065 -0.05748871 0.06225015 -0.08326093 -0.048955664 0.03658172 -0.041576106 -0.028885582
0.04120657 -0.045603145 0.11320025 -0.0050742985 0.22722931 -0.07715656 -0.111552306 0.10535924
-0.14640827 -0.044709455 0.15804207 0.24056645 0.10329725 -0.169037 0.16557711 -0.048657674
-0.03191851 0.123706795 -0.0069630328 0.047446825 -0.0075345384 0.038909953 -0.023210425 -0.002745083
0.27521807 -0.01330384 -0.023391575 -0.036769893 -0.05622999 -0.16665661 -0.18735945 0.1957034
0.050473753 0.0038642725 0.018764997 -0.30486342 -0.14916122 0.23099361 -0.06149056 -0.043754432
-0.036288768 0.0006322315 0.088093 -0.09598036 0.04135742 -0.023186862 -0.004939644 0.06740878
00000000: 2798 ddbd be0c 22be d68e c2bc 75c3 323c
00000010: 45c9 5a3d 9b30 1ebc e492 51be 3fc9 90bd
00000020: 65b7 093e 2e1e 523e 2997 633e e925 873e
00000030: 3c67 313e d506 c4bd f997 a2bd 2782 283e
00000040: 16b2 183e fd2e 273e 4623 223e c2ee 703e
00000050: e9d4 a5bc 72ce 59bc c4ca 133e c53c 603e
00000060: c4e5 783e dc02 7a3e 8286 883e 9beb 1b3d
00000070: 8f13 9fbb a125 293e 4f02 443e 7e00 303e
00000080: 833c 323e 7bc6 2f3e 9b78 f03c 07b4 b2bd
00000090: beca 4c3e 6617 323e a2c2 0f3e af26 c53d
000000a0: 84b8 043e 6d5e 30bd c002 95bd 9519 023e
000000b0: d047 a83d 4b1c a33d b93a 903d ccbe 76bd
000000c0: 5cbb b8bd 84f8 e8bc a8c8 ffbd a202 2b3e
000000d0: 37e6 c73d 9f9b 5a3e ae9e 3f3e 5fd1 3dbd
000000e0: 4a45 f53d cbbe 33be aeb0 c93d f368 1abd
000000f0: bcd6 1ebd 801d 08be b89b 6cbd cadd b13d
00000100: d647 34be 5e32 8d3d c99d 573c d0e5 363d
00000110: 2814 053e 51c4 93bd 641e d13d 9bb5 97bc
00000120: 4fa7 1abc 463e 26bd 520f 9f3e bf98 f93c
00000130: e2a6 4dbd 9cf7 213e 0442 15bd a201 133c
00000140: 06a2 1d3c 70bf 403e 5832 133d f4ac 9abd
00000150: cb79 453e 4648 223d 3dee 3abc 26ff b93d
00000160: 4ba1 e03c a7f2 f6bb 61cd d43a 0446 703e
00000170: 9b92 493d 1cc1 64bb 7fa6 ee3c db45 38bd
00000180: 0fdb 463c 69b6 313e 9775 823e a80c 133e
00000190: 4a29 0e3b 20d0 7dbd 1712 e2bc dd4a b73d
000001a0: 22af 4d3e 558f c73d 632b eebd 600e 0bbe
000001b0: 1496 35be 71b0 0abe 5207 2cbe 2a6b 5ebe
000001c0: d819 01bd 19c4 0bbe 86c9 0cbe 4ba3 30be
000001d0: 41ae 46be bdb9 1fbe bf78 64be 569f 49bd
000001e0: 575f e8bd decf 1dbe 3a05 35be 273c 40be
000001f0: 9c10 14be f577 0abe f879 c4bb 8edb cbbd
00000200: abb9 15be 3835 37be 28c1 2ebe 4417 16be
00000210: a44f 32be e10a 2cbc 8405 01be 048c 36be
00000220: a66e 43be c6af 18be 563a c4bd 2055 e2bd
00000230: 7fbe 1cbc dd4b 80bd ab74 03be b2e6 f5bd
00000240: 7697 bdbd 4b94 fd38 eb4c 263e 03c3 c73d
00000250: d3d6 633e a475 4f3d 60d7 d23c 9d96 c93d
00000260: 6305 bc3d 0fab 363e da64 c53d 4ed7 c1bb
00000270: 107c c1bd 547e e4bd 4781 6cbb 0c25 a33a
00000280: cac7 033e d634 da3a 4a4b 46bd ca49 fbbd
00000290: dd9c a3bd a136 293d 751e 8b3d f06b 113e
000002a0: 0af2 cebc d59c 18be e145 6dbe 838e 03be
000002b0: e51a 90bd 3c87 cabc 13fc 013e 1230 7bbe
000002c0: 48c7 4dbe 18e8 92be 2b21 00be d80d adbc
000002d0: 8a3b 523d a032 203e 5ba9 45be cc26 1abe
000002e0: 857b 24be a1b0 26be fa90 b2bd 424b 853c
000002f0: ff41 063e e6b2 09bc 7a20 bcbc 4b93 d6bd
00000300: e57b ccbd dd29 573c 425b 203e d25f 093e
00000310: b1dd 82be 1af8 37bd 3151 04bd efa9 533d
00000320: 27dd 883d 4879 6bbd 03fa 7e3d b584 aabd
00000330: bc85 48bd b7d6 153d b54b 2abd 75a1 ecbc
00000340: 38c8 283d 5dca 3abd 88d5 e73d 4d46 a6bb
00000350: cdae 683e 4204 9ebd 8975 e4bd 96c6 d73d
00000360: 0dec 15be 4321 37bd c8d5 213e 0d57 763e
00000370: 828d d33d 0918 2dbe 0c8d 293e 454d 47bd
00000380: fcbc 02bd fd59 fd3d 272a e4bb 9a57 423d
00000390: 4ae4 f6bb 0b60 1f3d ca23 bebc dae6 33bb
000003a0: 62e9 8c3e 59f8 59bc b09f bfbc 079c 16bd
000003b0: 6b51 66bd 08a8 2abe 28db 3fbe 7966 483e
000003c0: 91bd 4e3d bc3f 7d3b 0db9 993c 0f17 9cbe
000003d0: b8bd 18be 9789 6c3e 87dd 7bbd d937 33bd
000003e0: 88a3 14bd 56bc 253a 1a6a b43d 5a91 c4bd
000003f0: 6666 293d 60f2 bdbc bddc a1bb 9d0d 8a3d
